model.pth (torch, 965226 bytes, 33 tensors)

features.0.weight f4 [128, 100]
0	0xb991ee0f	-0.00027833923
1	0x00055a7b	4.91636e-40
2	0x00055838	4.90824e-40
3	0x800557e0	-4.90701e-40
4	0x800559eb	-4.91434e-40
5	0x00055aec	4.91794e-40
6	0x00055abf	4.91731e-40
7	0x00055a23	4.91512e-40
8	0x00055737	4.90464e-40
9	0x00055a1c	4.91503e-40
10	0xbb0cec90	-0.0021503307
11	0x80055994	-4.91312e-40
12	0x800557a1	-4.90613e-40
13	0x3cfc91a1	0.03083116
14	0x800557b8	-4.90645e-40
15	0xbd05c32d	-0.032656837
16	0xb8e5992a	-0.000109481
17	0x3c058467	0.008149243
18	0x3ba9acc8	0.005178068
19	0x3cc154e9	0.023600059
20	0xbcc554ee	-0.02408835
21	0x3c82a390	0.015947133
22	0x3d020921	0.031746987
23	0xbb13318a	-0.0022459948
24	0x3bf76ff7	0.007551189
25	0x3b6182e1	0.0034410285
26	0x3ceb2c4a	0.028707642
27	0x3cb415b3	0.021983003
28	0x3c81d5a6	0.015848946
29	0x3c7d5d91	0.0154642025
30	0x0005582b	4.90806e-40
31	0x3c3dde83	0.011588695
32	0x3cb3bba9	0.02194007
33	0x3c16165f	0.009160607
34	0x3cc77e10	0.024352103
35	0xbc250bc4	-0.010073606
36	0x3b1d3906	0.0023990287
37	0x3ba321a1	0.004978374
38	0x3ce5a0fd	0.028030867
39	0x3d0947ff	0.033515926
40	0xbcaa27eb	-0.020770987
41	0xbcd922d5	-0.026505867
42	0xbd0bf7d4	-0.034171894
43	0x3ca0beed	0.01962229
44	0x3b9291e2	0.004472957
45	0x3b3db62a	0.002894769
46	0x3d2ac1ed	0.04168885
47	0xbbfb299f	-0.0076648737
48	0x3d96246d	0.073311664
49	0x3d04e568	0.03244534
50	0xbd6414ec	-0.055684015
51	0xbcff541b	-0.031168034
52	0xbd612137	-0.054963317
53	0x3d24ff09	0.040282283
54	0x3b8c4999	0.0042812345
55	0x3c6ad374	0.014332641
56	0x3d822469	0.06354601
57	0x3cb18dd0	0.021674067
58	0x3d9f07e1	0.07765175
59	0x3cd3dd96	0.025862496
60	0xbd25ee77	-0.04051062
61	0xbd2b6ff7	-0.041854825
62	0x3b886e17	0.0041635144
63	0x3d3713bf	0.044696566
64	0x3cab1c4e	0.02088752
65	0x3bc3d148	0.005975876
66	0x3ca15908	0.019695774
67	0x3cf89fe9	0.030349689
68	0x3d1c4be2	0.038158305
69	0x3c9f60cb	0.019455334
70	0xbc216c5f	-0.009852498
71	0x3d55f7f1	0.05223841
72	0x3dcff95d	0.10154984
73	0x3ba2c003	0.0049667372
74	0x3a803d6e	0.0009783932
75	0x3cf32eff	0.029685495
76	0x3bfbdb1b	0.0076860315
77	0xbb64bead	-0.003490369
78	0xbd921c9a	-0.071343616
79	0xbbb54695	-0.0055320957
80	0x3d37d82c	0.044883892
81	0x3ba30509	0.0049749655
82	0x3d4550a3	0.048172604
83	0xbc047cf1	-0.008086429
84	0x3d2dff39	0.042479727
85	0x3cd85805	0.026409158
86	0xbccce1cc	-0.025010012
87	0x3c507b79	0.012724751
88	0xbd501b71	-0.05080742
89	0x3c85d031	0.016334625
90	0x3d24a03b	0.04019187
91	0x3d06bfd9	0.032897804
92	0xbbe8d01b	-0.007104886
93	0xbd2e23f2	-0.04251475
94	0x3cc7801a	0.024353076
95	0x3ca88dbf	0.020575402
96	0x3b06f34c	0.0020591794
97	0xbc644513	-0.013932484
98	0x3c5f675e	0.0136354845
99	0x3d070cbd	0.032971133
100	0x3d35b74d	0.044364262
101	0x80055984	-4.9129e-40
102	0x80055a3d	-4.91549e-40
103	0x80055a9b	-4.9168e-40
104	0x0005585f	4.90879e-40
105	0x00055910	4.91127e-40
106	0x80055998	-4.91318e-40
107	0x00055a57	4.91585e-40
108	0x00055a6e	4.91618e-40
109	0x000558d0	4.91037e-40
110	0x3aca161b	0.0015417965
111	0x800559ee	-4.91438e-40
112	0x00055936	4.9118e-40
113	0x3d3142cd	0.043276597
114	0x00055904	4.9111e-40
115	0xbbb16d1d	-0.0054146186
116	0xb7a1b2c9	-1.9275949e-05
117	0xbb5c3dd5	-0.003360619
118	0x3bc79979	0.0060912934
119	0x3d665fff	0.056243893
120	0xbbd9657a	-0.0066344114
121	0xbd13b472	-0.036060758
122	0x3c0b8b1e	0.008517055
123	0xbccd7ed6	-0.025084894
124	0xbce09733	-0.027415847
125	0x3bea8e24	0.0071580578
126	0x3c9e60f2	0.019333337
127	0xbd2d7f91	-0.042357985
128	0x3ce4bda9	0.027922468
129	0xbaf34bc3	-0.0018562007
130	0x800559f2	-4.91444e-40
131	0x3c1dfc72	0.009642707
132	0x3b3c125d	0.0028697469
133	0x3a47b545	0.0007618259
134	0x3c2b8990	0.010469809
135	0xbc7dc17f	-0.015488028
136	0xbbf135fd	-0.007361172
137	0xbd550cd3	-0.052014183
138	0x3d19e39a	0.037570573
139	0xbc62db94	-0.013846297
140	0xbba95afc	-0.005168317
141	0x39b5b18b	0.0003465529
142	0x3b8cbe87	0.0042951736
143	0x3cc270e6	0.023735475
144	0x3d2b75db	0.041860443
145	0x3c8d5c4d	0.017255927
146	0xbb0af086	-0.0021200492
147	0xbd73c666	-0.05951538
148	0x3c0d564f	0.008626535
149	0x3b301fef	0.0026874503
150	0x3c7b41d4	0.015335519
151	0x3c9068ac	0.017628036
152	0xbc0f76d7	-0.008756361
153	0x3cb98293	0.02264527
154	0x3c8edb34	0.017438509
155	0xbbfec000	-0.007774353
156	0xbcadc475	-0.021211842
157	0xbd3855d0	-0.045003712
158	0xbb1b0c1d	-0.0023658343
159	0x3bef4f57	0.007303159
160	0x3c1c695c	0.009546604
161	0x3c9ed556	0.019388836
162	0x3cffcccd	0.031225586
163	0xbce582eb	-0.028016528
164	0x3bd8fc14	0.006621847
165	0x3cab572b	0.020915588
166	0xbc805700	-0.015666485
167	0x3c024925	0.007952009
168	0x3a015e3e	0.00049350027
169	0x3cf73951	0.030178698
170	0x3c7ab3f2	0.015301691
171	0x3c92f0f6	0.017937165
172	0x3c248014	0.010040302
173	0x3d3f6ef0	0.046736658
174	0xbd875829	-0.06608612
175	0x3d472896	0.04862269
176	0x3cc64360	0.024202049
177	0xbc27d075	-0.010242571
178	0x3b95ffd9	0.0045776186
179	0xbbe178bb	-0.0068808473
180	0xbc7b3d19	-0.015334391
181	0x39390021	0.00017643023
182	0xbb68aa78	-0.0035501998
183	0x3cdf0ced	0.027227843
184	0xbcade8e3	-0.021229213
185	0xbd31274b	-0.043250363
186	0x3cb68115	0.022278348
187	0xbc817619	-0.015803384
188	0x3cbecf0f	0.023292093
189	0xbc82faf2	-0.0159888
190	0xbcbaa313	-0.022782838
191	0x3c930b2a	0.01794966
192	0x3bec7d99	0.007217121
193	0x3a6b55ff	0.0008977353
194	0xbce22fac	-0.027610622
195	0x3cef86cf	0.029239086
196	0xbce2ecb3	-0.027700758
197	0x3cf8dae6	0.030377816
198	0x3d0bf727	0.03417125
199	0x3c81bcaa	0.015837032
200	0x3cc24a87	0.023717178
201	0x00055a2d	4.91526e-40
202	0x800558ee	-4.9108e-40
203	0x000557e3	4.90705e-40
204	0x800557ed	-4.9072e-40
205	0x80055960	-4.91239e-40
206	0x80055a33	-4.91535e-40
207	0x0005589f	4.90969e-40
208	0x80055838	-4.90824e-40
209	0x8005584f	-4.90857e-40
210	0x80055aa0	-4.91688e-40
211	0x800557ab	-4.90627e-40
212	0x80055863	-4.90885e-40
213	0xbca03db8	-0.01956068
214	0x0005599f	4.91327e-40
215	0xbbd4f300	-0.0064986944
216	0x80055800	-4.90746e-40
217	0x3c4eda45	0.012625282
218	0xbc25632b	-0.010094444
219	0x3cd9ca66	0.026585769
220	0x3c859d79	0.01631044
221	0xbbe0fe4c	-0.006866252
222	0xbcf24976	-0.029576045
223	0x3d2d13fc	0.042255387
224	0x3ba41c8c	0.005008286
225	0x3bbcc756	0.0057610674
226	0xbc959a2c	-0.018261991
227	0xbce32d76	-0.027731638
228	0xbc90daf4	-0.01768253
229	0xbc172b94	-0.009226698
230	0x800559db	-4.91412e-40
231	0x3c8fbc80	0.017545938
232	0xbc352500	-0.011056185
233	0x3b045b3e	0.0020195986
234	0xbcc9e105	-0.02464343
235	0xbc437256	-0.011929115
236	0xbc406c1e	-0.011744527
237	0x3c5a8579	0.013337486
238	0xbcc6472f	-0.024203865
239	0x3c873e62	0.016509239
240	0xbcb2bbc3	-0.021818047
241	0xbbd433f8	-0.0064759217
242	0xbc8b4900	-0.017002583
243	0x3cac8044	0.021057256
244	0x3b9f812e	0.0048676943
245	0xbc257327	-0.010098255
246	0xbbb76501	-0.0055967574
247	0x3cc4fa71	0.024045201
248	0xbcc4a033	-0.02400217
249	0x3c2f4390	0.0106972605
250	0x3acea9ad	0.001576712
251	0xbbbdc2fe	-0.005791067
252	0xbc23d087	-0.009998447
253	0xbbb67c60	-0.005569026
254	0xbb6bb5ae	-0.0035966444
255	0x3cb3a4e8	0.02192922

features.0.bias f4 [128]
0	0x3cb599c0	0.02216804
1	0x3ccd84ae	0.02508768
2	0x3d2cb0de	0.04216086
3	0x3c97b787	0.01852013
4	0x3cdcbbd2	0.026945028
5	0x3c6cd5bd	0.014455256
6	0xbcbed869	-0.023296552
7	0x3d02de74	0.03195043
8	0x3c911b90	0.017713338
9	0x3c65eac1	0.0140330205
10	0x3d4a5a2f	0.049402412
11	0xbd087205	-0.033311862
12	0x3cc210f9	0.023689734
13	0x3ca5cc07	0.02023889
14	0xbc91fca6	-0.017820667
15	0x3c91349e	0.017725285
16	0xbd0054db	-0.031330924
17	0x3c9e3290	0.01931122
18	0x3d4ff1fc	0.050767884
19	0x3c2d811a	0.010589862
20	0xbdbdfaa4	-0.092763215
21	0x3d563593	0.052297186
22	0xbcefd78c	-0.029277585
23	0x3d773603	0.060354244
24	0x3b478239	0.003044261
25	0x3d0472f1	0.03233618
26	0x3d0b707a	0.034042813
27	0x3d80f1a0	0.06296086
28	0x3d611294	0.054949358
29	0xbc6b55ac	-0.0143636875
30	0x3c8046a9	0.015658693
31	0x3d74da22	0.05977834
32	0x3d2c02ed	0.041994978
33	0x3d0861e3	0.033296477
34	0x3cb0f4fe	0.021601196
35	0x3d00f773	0.031485986
36	0x3ccc2186	0.024918329
37	0xbc920507	-0.017824663
38	0xbcd78463	-0.026308244
39	0x3a8d4dee	0.0010780671
40	0x3d3a1ac8	0.045435697
41	0x3d3964ef	0.045262273
42	0x3d22e334	0.03976746
43	0x3daa242f	0.08307683
44	0xbd4a7f7e	-0.049437992
45	0xbbeb366e	-0.0071781194
46	0x3c1275d2	0.008939223
47	0x3d92be0e	0.07165156
48	0xbb47e8a4	-0.0030503655
49	0xbb2b1d40	-0.0026109964
50	0x3d0e2c21	0.034710053
51	0x3d107f0e	0.03527742
52	0x3d196856	0.037453018
53	0xbbe252b3	-0.006906831
54	0xbbc8dfeb	-0.0061302087
55	0xbc31a80d	-0.010843289
56	0x3cd21d41	0.025648715
57	0x3d09b5e0	0.033620715
58	0x3d0c5019	0.034256075
59	0xbcf56fbd	-0.029960508
60	0x3d2204e3	0.03955544
61	0x3c8527b4	0.016254283
62	0x3ce5ed55	0.02806727
63	0x3bb709d0	0.0055858865
64	0x3d1da58e	0.038487963
65	0xbc7d75b0	-0.015469953
66	0x3d1c9937	0.038232055
67	0x3c85564c	0.016276501
68	0x3d1296df	0.035788413
69	0x3cb7b8e0	0.022427022
70	0x3d6b54b0	0.05745381
71	0x3c91344e	0.017725136
72	0x3cb03048	0.021507397
73	0x3c652694	0.0139862485
74	0x3d0bedad	0.034162212
75	0x3c80ff24	0.01574666
76	0x3ab32486	0.0013667501
77	0x3c199923	0.00937489
78	0x3cc3230f	0.023820428
79	0x3d053f87	0.032531288
80	0x3dd65f7b	0.1046743
81	0xbdfa17c0	-0.12211561
82	0x3ba5cd75	0.005059893
83	0xb9d0dc40	-0.0003983695
84	0x3d581219	0.052751634
85	0x3cc3ba63	0.023892587
86	0xbb985082	-0.004648269
87	0x3cf36c74	0.0297148
88	0x3cc51939	0.024059879
89	0x3ca9404a	0.020660538
90	0x3cd74c6d	0.02628156
91	0x3c51aea7	0.012797988
92	0x3d2fc451	0.04291183
93	0x3cf0e359	0.029405283
94	0x3d367a3f	0.044550177
95	0x3c59494a	0.013262102
96	0xbcca443b	-0.024690738
97	0xbc8c81e5	-0.017151782
98	0xbbd62b02	-0.0065358886
99	0xbc622970	-0.013803825
100	0x3d08bed9	0.03338513
101	0xbd1bc31f	-0.03802788
102	0x3d003282	0.031298168
103	0x3cff7925	0.031185696
104	0x3a886ef1	0.001040904
105	0x3d465329	0.04841915
106	0x3cb14c20	0.021642745
107	0x3ba760aa	0.005107959
108	0x3d3a0bdc	0.045421466
109	0x3d39e5d3	0.045385193
110	0xbbae6931	-0.0053225984
111	0xbb6bb1cd	-0.0035964132
112	0x3d931be9	0.07183058
113	0xbcf3a365	-0.029740999
114	0x3d187e17	0.037229624
115	0x3d38633e	0.04501652
116	0x3c91aa67	0.01778145
117	0x3c5335a4	0.012891207
118	0x3d4a95e6	0.04945936
119	0x3c8a1206	0.016854297
120	0xbb6b0145	-0.003585891
121	0x3cccd72c	0.025004946
122	0x3d2290f3	0.039689016
123	0x3d2fc56b	0.04291288
124	0x3d3e5143	0.046464216
125	0x3cf5230f	0.029923944
126	0xbb973785	-0.0046147727
127	0x3d6bd044	0.057571664

features.2.weight f4 [128, 128]
0	0x3ca1aa87	0.019734634
1	0x3c990455	0.018678823
2	0x3c29eb36	0.01037102
3	0xbc18c3cc	-0.009324025
4	0x3b743e09	0.003726842
5	0xba2d2178	-0.00066044135
6	0x3b9928a5	0.0046740347
7	0xbaf95575	-0.001902266
8	0x3bc36033	0.0059623956
9	0xbc666bb2	-0.0140637625
10	0x3c921e26	0.017836642
11	0x3c8c3763	0.017116254
12	0x3c47a942	0.01218635
13	0xbc004c76	-0.00783073
14	0xbb286eb2	-0.0025700745
15	0x3bbc7f22	0.00575246
16	0x3a8dae4a	0.0010809388
17	0x3af6b78d	0.0018823013
18	0xbb19444b	-0.0023386653
19	0xbbfb1a00	-0.0076630116
20	0x3c8871d8	0.016655847
21	0x39c83829	0.00038188815
22	0x3be05c93	0.006846973
23	0x3c329bf1	0.010901437
24	0x3c9c8651	0.019107016
25	0x3bfac781	0.0076531773
26	0xbb1fe211	-0.002439622
27	0x3b15dfed	0.0022869066
28	0xbc8deca4	-0.017324753
29	0xbb19d518	-0.002347296
30	0xbaf66f74	-0.0018801526
31	0x3b20f8b9	0.0024562313
32	0x39b4f8f1	0.0003451775
33	0x3b9a64cd	0.0047117234
34	0xbb462391	-0.0030233602
35	0xbb6da661	-0.00362625
36	0x3c2a71e8	0.010403134
37	0xba184569	-0.0005808683
38	0xbc0e7131	-0.008693979
39	0x3c47cca5	0.012194787
40	0x3b6f14ea	0.0036480972
41	0x3c954f80	0.018226385
42	0x3c23f5fd	0.010007379
43	0x3cfc6db1	0.030814024
44	0x3b74c44b	0.0037348445
45	0xbb54d2ca	-0.0032474273
46	0x3a41229e	0.0007367524
47	0x3cad00dc	0.021118574
48	0x3a952c50	0.0011381004
49	0xbbc423ab	-0.0059856973
50	0x3b9b8615	0.0047462084
51	0x39205ab6	0.00015292582
52	0x3afa3cee	0.0019091645
53	0xbb8a98a5	-0.0042296224
54	0x3b6cb220	0.0036116913
55	0xbb05803d	-0.0020370625
56	0x3c069982	0.00821531
57	0x3c69e055	0.014274676
58	0x3bd449b6	0.0064785136
59	0x3bdff5a2	0.0068347016
60	0x3cf7830f	0.03021386
61	0x3bcacae9	0.0061887396
62	0x3c57cbb5	0.013171126
63	0x3c6ba87f	0.014383434
64	0xb9b28e99	-0.0003405705
65	0x3ba407d2	0.005005815
66	0x3af02309	0.0018320988
67	0xbc038e0d	-0.008029473
68	0x3bc02af8	0.0058644973
69	0xbb02c302	-0.001995266
70	0x3c0d316e	0.008617742
71	0x3ca80d32	0.020514105
72	0x3bcd1a60	0.0062592477
73	0x3c01b379	0.007916325
74	0xbb494739	-0.0030712618
75	0x3c34848d	0.011017931
76	0xbbae59e8	-0.0053207763
77	0x3c8945a5	0.016756842
78	0xbc4f16a4	-0.012639675
79	0xbb509962	-0.0031829705
80	0x3d439a17	0.047754373
81	0x3c9d187c	0.019176714
82	0xbad59823	-0.0016295951
83	0x3ab5093f	0.001381196
84	0x3ca6e36f	0.02037212
85	0x3c263209	0.010143765
86	0x3c422071	0.011848555
87	0x3b0f8fdb	0.0021905813
88	0xbbd4302c	-0.006475469
89	0x3bfb27b4	0.007664645
90	0x3c4b490a	0.012407551
91	0xbb72eac8	-0.003706621
92	0x3c06a6de	0.008218495
93	0xbb9e6774	-0.00483411
94	0x3c171f34	0.009223748
95	0x3c1ff0af	0.009761973
96	0xbba7b501	-0.005118013
97	0xbc2df032	-0.010616349
98	0x3ba0ac29	0.0049033356
99	0x3b9d9f64	0.0048102606
100	0x3b9442c1	0.0045245592
101	0x3cc2a3ff	0.02375984
102	0x3c864ee5	0.016395042
103	0x3bc9a569	0.0061537516
104	0xbb176bdd	-0.0023105063
105	0x3c493ffb	0.012283321
106	0xbbf54af6	-0.0074857427
107	0x3babb57b	0.00524014
108	0x3c1bf46e	0.009518726
109	0x3b8f1c03	0.004367353
110	0x3c459e93	0.012061733
111	0x3b91bf2f	0.0044478397
112	0xbb6aaf1a	-0.0035809935
113	0x3bdfd8b9	0.0068312553
114	0x3b6ac8d1	0.0035825262
115	0xbb380239	-0.0028077497
116	0xbb0734f2	-0.0020630923
117	0x3cfd5d9b	0.030928424
118	0xbc8516eb	-0.01624628
119	0x3c3ae3ac	0.01140682
120	0xbbdf008e	-0.006805486
121	0x3a4e71ff	0.0007875263
122	0x3c045216	0.008076211
123	0x3bb3939b	0.0054802424
124	0x3c1d602c	0.009605449
125	0xbb74ddea	-0.0037363716
126	0x3b44b369	0.0030014163
127	0xbb563886	-0.00326875
128	0xbd834946	-0.0641046
129	0x3cc032ac	0.023461662
130	0x3c85f8c3	0.01635397
131	0x3c4b6b61	0.012415738
132	0xbd957a75	-0.072987475
133	0xbcd6eb17	-0.026235146
134	0xba144c11	-0.0005657087
135	0x3c9f9f8e	0.019485261
136	0x3b20049f	0.0024416817
137	0xbc486aab	-0.012232463
138	0xbc3cc83c	-0.011522349
139	0xbbb648ae	-0.0055628633
140	0x39eb61f8	0.00044895685
141	0xbc209f7b	-0.009803648
142	0x3d21e579	0.039525483
143	0xbd302076	-0.042999707
144	0xbca057ce	-0.019573119
145	0xb8db6a7b	-0.00010462567
146	0x3c61f785	0.013791923
147	0x3ccb4bcf	0.024816422
148	0x3d071c5e	0.032986037
149	0x3ceb1848	0.028698102
150	0xbbe95f69	-0.0071219695
151	0x3bf631ab	0.007513245
152	0xbbcfbbd2	-0.0063395286
153	0xbc91f991	-0.017819198
154	0xbd0879de	-0.033319347
155	0x3c89a547	0.016802443
156	0xbc32727b	-0.010891552
157	0xbb128ca2	-0.0022361656
158	0x3b08ffd7	0.0020904446
159	0x3bad748c	0.0052934345
160	0xbc8c7e20	-0.017149985
161	0x3d2b1c73	0.04177518
162	0xbc2d1aeb	-0.0105655
163	0xbc513c22	-0.012770684
164	0xbd3c4bf7	-0.045970883
165	0xbcc16744	-0.023608811
166	0xbb315466	-0.0027058362
167	0x3c9ffc42	0.019529466
168	0xbc53b276	-0.012920966
169	0x3bf395d8	0.0074336343
170	0xbd5a889f	-0.05335295
171	0xbcb1d710	-0.021708995
172	0xbd974028	-0.07385284
173	0x3c3362af	0.010948821
174	0x3d3b1da5	0.045682568
175	0x3c2ec5ea	0.010667304
176	0x3982efc8	0.00024974183
177	0x3bc96db7	0.006147112
178	0xbb6426ad	-0.0034813092
179	0xbd0fae9e	-0.035078637
180	0x3c145fa8	0.009056009
181	0xbcde71bf	-0.027153848
182	0xbbc0224c	-0.0058634635
183	0x3b83f636	0.0040271534
184	0xbc890ee7	-0.016730739
185	0x3c1e1bd0	0.009650186
186	0xbd189614	-0.0372525
187	0x3d5c565d	0.0537933
188	0xbc62eb90	-0.013850108
189	0xbc10365e	-0.008802025
190	0x3cb722da	0.022355486
191	0xbc96b2c6	-0.018395793
192	0xbc61ea18	-0.013788722
193	0xbc99a1a3	-0.018753832
194	0x3af9e5c6	0.001906567
195	0xbcc0cdd8	-0.023535654
196	0x3c6b3d1e	0.014357833
197	0xbd1cc44d	-0.038273145
198	0x3d556f1e	0.052107923
199	0xbc908b03	-0.017644411
200	0xbc4e1041	-0.012577117
201	0x3c32631c	0.010887887
202	0x3be4fe38	0.006988313
203	0xbcf1d18d	-0.029518867
204	0xbbce0a44	-0.006287845
205	0x3bbb42ce	0.005714751
206	0xbce11587	-0.027476085
207	0xbc36d811	-0.011159913
208	0xbd0324ba	-0.032017447
209	0x3be82476	0.0070844246
210	0x3c0fb8a2	0.008772047
211	0x3d1d0aa2	0.03834022
212	0x3c87a55e	0.016558345
213	0xbb27942c	-0.0025570495
214	0xbd338773	-0.043830346
215	0xbc836909	-0.016041296
216	0x3cd3a83f	0.025837062
217	0xbba7f3d4	-0.005125502
218	0xbd2491c3	-0.04017807
219	0xbb500a95	-0.0031744589
220	0x3c2e47c3	0.0106372265
221	0x3c52763e	0.012845574
222	0xbd27db5a	-0.040980674
223	0x3d1c3550	0.03813678
224	0xbc76313d	-0.015026388
225	0xbc4ea439	-0.012612396
226	0xbc955b7d	-0.018232102
227	0xbc139d5d	-0.009009686
228	0x3cd1d998	0.025616452
229	0x3d3c9c38	0.04604742
230	0xbcef7674	-0.029231288
231	0x3bee8d22	0.007280008
232	0x3cb24563	0.021761602
233	0xbca0b3c6	-0.019616973
234	0xbc35a691	-0.011087076
235	0x3b8e3c11	0.0043406566
236	0xbcd35168	-0.025795653
237	0x3ca86ef0	0.020560712
238	0x3a9df3db	0.0012050824
239	0xbc29b941	-0.010359109
240	0xbd3392b6	-0.043841086
241	0x3c9741ac	0.018463932
242	0xbd4723cb	-0.04861812
243	0x3babf336	0.005247499
244	0x3b3356cb	0.0027364965
245	0xbc83997f	-0.016064404
246	0xbc9f921c	-0.01947885
247	0xbbdc11fd	-0.0067160116
248	0x3c9dc63e	0.019259568
249	0x3c8aedf8	0.016959175
250	0xbc7840c3	-0.015152159
251	0x3d1733fc	0.03691481
252	0x3b9e7dfe	0.004836797
253	0xbce0210d	-0.02735951
254	0xbc8a278b	-0.016864559
255	0xbd50bb61	-0.05095995

features.2.bias f4 [128]
0	0xbc14895b	-0.009065951
1	0x3c493bea	0.012282351
2	0xbd47023b	-0.04858611
3	0x80055806	-4.90754e-40
4	0xbd3f7f5b	-0.046752315
5	0x3c4b24a4	0.0123988725
6	0xbc94bde0	-0.018156946
7	0x3c09f915	0.008421202
8	0xbd00b5e0	-0.03142345
9	0x3d18c675	0.03729864
10	0x3ccbaa2d	0.02486142
11	0xbce4b93f	-0.027920363
12	0xbc834e39	-0.01602851
13	0x3c9d3159	0.01918857
14	0x800558bf	-4.91014e-40
15	0x00055a32	4.91533e-40
16	0xbcfc741e	-0.030817088
17	0xbb94ff91	-0.0045470675
18	0x3d121699	0.035666082
19	0xbd5d07c9	-0.053962503
20	0xbc9e5aae	-0.019330349
21	0x3c815589	0.015787857
22	0xbc8134fc	-0.015772335
23	0xbcf4a238	-0.029862508
24	0x3c11c0e9	0.008896091
25	0xbc687489	-0.01418794
26	0x3cdf4072	0.02725241
27	0xbd588e7e	-0.052870266
28	0xbcb374f2	-0.02190635
29	0x3cd93a7a	0.026517142
30	0xbb6ba18c	-0.0035954444
31	0xbc8075a2	-0.015681092
32	0x3ca93424	0.020654745
33	0x3cb9016a	0.022583682
34	0x3b2ef3d6	0.002669563
35	0xbb4170b6	-0.0029516644
36	0xbc051f18	-0.008125089
37	0xbcd4f111	-0.025993856
38	0x3d2dc92c	0.04242818
39	0xbd41e50d	-0.04733758
40	0xbbcc2527	-0.006230015
41	0xb955dc83	-0.0002039541
42	0x3c218aaa	0.00985972
43	0xbc23a05a	-0.009986961
44	0x3d073b30	0.03301543
45	0x3aed42c2	0.001810156
46	0xbd411ee6	-0.047148608
47	0x3ceae0e8	0.028671697
48	0xbce48ddf	-0.02789968
49	0x3cae6c82	0.021291975
50	0xbca40672	-0.020022605
51	0xbd0a60b0	-0.033783615
52	0xbd3d1aaf	-0.046168026
53	0xbb970f4a	-0.004609977
54	0xbd20f40a	-0.039295234
55	0xbc81cff2	-0.015846226
56	0xbc20ea27	-0.009821451
57	0xbc5f50c7	-0.013630099
58	0x3d214cd7	0.03937992
59	0xbc051e7b	-0.008124943
60	0x3babff00	0.005248904
61	0xbd01c79e	-0.03168451
62	0x3d40ef60	0.047103286
63	0x3c394f8d	0.01131047
64	0x3bfa2419	0.0076336977
65	0xbbb6690b	-0.0055667213
66	0xbb874526	-0.004128116
67	0x3c29035f	0.010315745
68	0x3caf6a7c	0.02141308
69	0x3a75b90b	0.0009373582
70	0xbca5bf14	-0.020232715
71	0x3d3813f4	0.044940904
72	0xbd331138	-0.043717593
73	0xbbc915c1	-0.0061366265
74	0x3cb1b380	0.021692038
75	0x3c1aa969	0.009439805
76	0xbb80a602	-0.0039260397
77	0x3d13e792	0.036109515
78	0xb9b3a0a8	-0.0003426124
79	0x3c869019	0.016426133
80	0x0005576a	4.90536e-40
81	0xbd4131aa	-0.047166504
82	0x3c4d0ed9	0.012515747
83	0x3c613c6e	0.013747318
84	0xbd261d1e	-0.040555112
85	0x3d67406c	0.05645792
86	0x3d0fa223	0.035066735
87	0xbc8dfda7	-0.017332865
88	0xbbe83cb1	-0.007087313
89	0xba869e4d	-0.0010270566
90	0x3c880c07	0.016607298
91	0xbd5dfe15	-0.05419739
92	0x3d134c9a	0.035961725
93	0xbc56c977	-0.013109556
94	0xbc066d73	-0.008204806
95	0xbd3fc402	-0.046817787
96	0xbc2d7882	-0.010587813
97	0xbcbe2fa9	-0.023216086
98	0x3c244f7f	0.010028719
99	0x3c1defc0	0.00963968
100	0x3c8667b4	0.016406871
101	0x3acbf08a	0.0015559357
102	0x3cd43346	0.025903355
103	0xbc9797a8	-0.018504933
104	0xbce2493e	-0.027622815
105	0xbcb40fb3	-0.021980142
106	0xbadf6c13	-0.0017045758
107	0x00055791	4.9059e-40
108	0xbd1f30e2	-0.038864978
109	0x3bd90d27	0.0066238823
110	0x3cd20f90	0.025642186
111	0x3d10bcb0	0.035336196
112	0x3c776ffe	0.015102385
113	0xba881561	-0.0010382348
114	0x3c32ad1f	0.010905533
115	0xbc164f5e	-0.009174196
116	0x3c1a5c80	0.009421468
117	0xbc31ded7	-0.010856352
118	0x3b12b242	0.0022384082
119	0x3b88d4ca	0.004175757
120	0xbcc8c93c	-0.024510019
121	0x3d3aa9ab	0.045571964
122	0xbb9ad711	-0.004725345
123	0x3ba49de2	0.005023704
124	0x3c5c9f9e	0.01346579
125	0x3d739904	0.0594721
126	0xbd8cbe21	-0.06872202
127	0xbd8eb395	-0.06967846

features.4.weight f4 [128, 128]
0	0x800559e4	-4.91424e-40
1	0x00055abf	4.91731e-40
2	0x00055a9f	4.91686e-40
3	0x00055911	4.91128e-40
4	0x8006d14e	-6.26097e-40
5	0x00055944	4.912e-40
6	0x800559fe	-4.9146e-40
7	0x80055aea	-4.91791e-40
8	0x80062fb5	-5.68127e-40
9	0x80055920	-4.9115e-40
10	0x80055a39	-4.91543e-40
11	0x00055820	4.90791e-40
12	0x80055951	-4.91218e-40
13	0x800559b1	-4.91353e-40
14	0x00055aa2	4.9169e-40
15	0x0005576f	4.90543e-40
16	0x80055d3f	-4.92628e-40
17	0x80055790	-4.90589e-40
18	0x80055880	-4.90925e-40
19	0x800559a4	-4.91334e-40
20	0x80065893	-5.82787e-40
21	0x80055768	-4.90533e-40
22	0x80055832	-4.90816e-40
23	0x800558ee	-4.9108e-40
24	0x800559e0	-4.91419e-40
25	0x800559ad	-4.91347e-40
26	0x80055a7d	-4.91639e-40
27	0x80055aad	-4.91706e-40
28	0x80055b14	-4.9185e-40
29	0x800558c6	-4.91023e-40
30	0x80055a78	-4.91632e-40
31	0x80055824	-4.90796e-40
32	0x00055aa8	4.91699e-40
33	0x80057d35	-5.04093e-40
34	0x800559fc	-4.91458e-40
35	0x800559cf	-4.91395e-40
36	0x80055a8b	-4.91658e-40
37	0x8005590f	-4.91126e-40
38	0x800557df	-4.907e-40
39	0x00055788	4.90578e-40
40	0x80055af4	-4.91805e-40
41	0x8005889b	-5.08182e-40
42	0x000557df	4.907e-40
43	0x80055abb	-4.91725e-40
44	0x0005573e	4.90474e-40
45	0x8005c71a	-5.30602e-40
46	0x80055e0a	-4.92912e-40
47	0x8005c60f	-5.30228e-40
48	0x80055756	-4.90508e-40
49	0x800557e9	-4.90714e-40
50	0x80055b05	-4.91829e-40
51	0x80055808	-4.90757e-40
52	0x800559ed	-4.91437e-40
53	0x8005586f	-4.90901e-40
54	0x800558dd	-4.91056e-40
55	0x00055a31	4.91532e-40
56	0x800557e7	-4.90711e-40
57	0x800630b4	-5.68484e-40
58	0x800559af	-4.9135e-40
59	0x80065fb1	-5.8534e-40
60	0x00055906	4.91113e-40
61	0x80057640	-5.01598e-40
62	0x80055a11	-4.91487e-40
63	0x800558b3	-4.90997e-40
64	0x00055764	4.90527e-40
65	0x8006d556	-6.27543e-40
66	0x800557da	-4.90693e-40
67	0x800559d3	-4.914e-40
68	0x00011f82	1.03138e-40
69	0x800558d1	-4.91039e-40
70	0x800557f0	-4.90724e-40
71	0x80055742	-4.9048e-40
72	0x8005e776	-5.4221e-40
73	0x800558a7	-4.9098e-40
74	0x80055a70	-4.9162e-40
75	0x8005598d	-4.91302e-40
76	0x8005582c	-4.90808e-40
77	0x800559b6	-4.9136e-40
78	0x80055953	-4.91221e-40
79	0x80055821	-4.90792e-40
80	0x80044ecc	-3.95609e-40
81	0x80055ad9	-4.91767e-40
82	0x000558c3	4.91019e-40
83	0x80055936	-4.9118e-40
84	0x800558ad	-4.90988e-40
85	0x80055a57	-4.91585e-40
86	0x80055a93	-4.9167e-40
87	0x80055a9c	-4.91682e-40
88	0x80003c46	-2.1622e-41
89	0x00055821	4.90792e-40
90	0x80055822	-4.90794e-40
91	0x80065a8a	-5.83492e-40
92	0x8005575e	-4.90519e-40
93	0x800557b7	-4.90644e-40
94	0x00055a2c	4.91525e-40
95	0x00055a9b	4.9168e-40
96	0x80055a77	-4.9163e-40
97	0x80055df0	-4.92876e-40
98	0x800558c3	-4.91019e-40
99	0x800557da	-4.90693e-40
100	0x80055851	-4.9086e-40
101	0x8005ad10	-5.2126e-40
102	0x80055af8	-4.91811e-40
103	0x80069742	-6.05274e-40
104	0x80055aca	-4.91746e-40
105	0x800593cc	-5.12197e-40
106	0x80055a99	-4.91678e-40
107	0x80055a4d	-4.91571e-40
108	0x80055783	-4.90571e-40
109	0x00055943	4.91199e-40
110	0x0005591a	4.91141e-40
111	0x800558d5	-4.91044e-40
112	0x80055853	-4.90862e-40
113	0x000557ec	4.90718e-40
114	0x80056ec9	-4.9892e-40
115	0x000559ff	4.91462e-40
116	0x800558ff	-4.91103e-40
117	0x80055925	-4.91157e-40
118	0x80055ad8	-4.91766e-40
119	0x80055833	-4.90817e-40
120	0x800559d6	-4.91405e-40
121	0x80056fd4	-4.99294e-40
122	0x8005ccaf	-5.32604e-40
123	0x800557e8	-4.90712e-40
124	0x80055994	-4.91312e-40
125	0x80055ab4	-4.91716e-40
126	0x000558e4	4.91065e-40
127	0x8005801b	-5.05133e-40
128	0x3cac15cc	0.021006487
129	0x3ceeb5bb	0.02913939
130	0x3cb7c7ea	0.022434194
131	0x800559e1	-4.9142e-40
132	0x3cb26304	0.02177573
133	0xbc89f2fd	-0.016839499
134	0xbc5b1599	-0.0133718485
135	0x3d2c5495	0.04207285
136	0x3cd23ede	0.025664743
137	0x3c9e2bfa	0.019308079
138	0xba8d487b	-0.0010779047
139	0xbc83ee97	-0.01610498
140	0x3c8a2f61	0.016868295
141	0xbc40d991	-0.011770622
142	0x00055a25	4.91515e-40
143	0x00055941	4.91196e-40
144	0x3c42a8b0	0.011881039
145	0x3c6065bf	0.013696133
146	0x3ca6f278	0.02037929
147	0x3c35eb47	0.011103458
148	0x3c4a4a35	0.012346794
149	0x3c2f32fe	0.01069331
150	0x3bdd1540	0.006746918
151	0x3c26c420	0.010178596
152	0xbc6b5266	-0.014362907
153	0xbcde204c	-0.02711501
154	0xbcec0a5f	-0.02881354
155	0x3cd67ebf	0.026183484
156	0x3d057ee9	0.032591734
157	0x3d2cff43	0.042235624
158	0x3cd54673	0.02603457
159	0x39152abb	0.00014225666
160	0xbc36ca96	-0.011156699
161	0x3ce79875	0.02827094
162	0x3c2ce335	0.010552217
163	0x3d32ed86	0.04368355
164	0x3be5f151	0.0070172925
165	0xbcefee10	-0.029288322
166	0xbbaa68ce	-0.005200482
167	0x3d1bf487	0.038074996
168	0x3c40ee09	0.011775502
169	0xbc67c9c3	-0.014147225
170	0x3c6d2017	0.014472983
171	0xbd40d15c	-0.04707466
172	0x3c7b386a	0.015333274
173	0x3d3ffa02	0.046869285
174	0x3cdc086b	0.026859483
175	0xbcb6e528	-0.022326067
176	0x3c20427b	0.009781475
177	0x3d19d764	0.037558928
178	0x3ca80dc5	0.020514378
179	0x3cabf81f	0.020992337
180	0x3cca5a23	0.024701184
181	0x3cdee0fa	0.027206887
182	0x3cac5575	0.021036843
183	0x3caab07d	0.02083611
184	0x3cbd367f	0.023097275
185	0x3d0f0c62	0.03492392
186	0xbb28458d	-0.002567622
187	0xbca33920	-0.0199247
188	0x3c3b3bc6	0.011427825
189	0x3ca9f1ec	0.02074524
190	0x3c73122a	0.014835874
191	0xbc4d7c06	-0.0125417765
192	0x3c172baa	0.009226719
193	0xbcaa1cb0	-0.020765632
194	0x3ccce380	0.025010824
195	0x3ca7fad5	0.020505348
196	0xba231d06	-0.00062222814
197	0xbc1122df	-0.008858412
198	0x3cec836b	0.028871259
199	0xb8e2dd3d	-0.000108177286
200	0x3cfc6264	0.030808635
201	0x3c9ab3cb	0.01888456
202	0x3d16cb6d	0.036815096
203	0x3cad7d4c	0.02117791
204	0x3c6b7d6d	0.014373166
205	0x3b3e1d4c	0.0029009162
206	0x3c2fdf2e	0.0107343625
207	0xbc685799	-0.014181041
208	0x00055849	4.90848e-40
209	0x3d7fe3ed	0.062473226
210	0x3cd4d03f	0.025978206
211	0x3c51aae8	0.012797095
212	0x3be88940	0.0070964396
213	0x3cf962e3	0.03044266
214	0x3c8ca7eb	0.017169913
215	0x3be988c0	0.0071268976
216	0xbc58c948	-0.013231583
217	0x3cfe3a44	0.031033643
218	0x3cf0ba48	0.0293857
219	0x3cc1194d	0.023571635
220	0x3c3c190a	0.011480579
221	0xbcd9591b	-0.026531747
222	0x3c71a1bf	0.014748036
223	0x3d0a95ec	0.033834383
224	0x3c98da01	0.01865864
225	0x3c9af2dc	0.018914632
226	0x3a4354e7	0.0007451311
227	0x3bacad61	0.005269692
228	0x3d28b0a5	0.041184086
229	0xbb8fd163	-0.0043889745
230	0x3c464b8e	0.012102975
231	0x3cd89140	0.026436448
232	0x3d0914de	0.033467166
233	0x3d39997c	0.04531239
234	0x3cab6fed	0.020927394
235	0x0005583c	4.9083e-40
236	0x3c832f98	0.016013905
237	0xbb30c93b	-0.0026975411
238	0x3d166219	0.036714647
239	0xbcda7123	-0.026665276
240	0x3c91e63d	0.017809981
241	0x3cd51ce8	0.02601476
242	0x3c976ffd	0.018486017
243	0x3d098ab7	0.033579554
244	0xbcc5644d	-0.024095679
245	0x3c031c0b	0.008002291
246	0xbc40e46c	-0.01177321
247	0x3ce848eb	0.028355082
248	0x39d94190	0.00041438313
249	0xbc9d03ff	-0.019166945
250	0x3c6f4812	0.014604585
251	0xbbee3469	-0.0072694314
252	0x3c569148	0.013096161
253	0x3c585791	0.013204471
254	0x3d035d77	0.032071557
255	0x3caa7b29	0.02081068

features.4.bias f4 [128]
0	0x0005593f	4.91193e-40
1	0xbd016fb0	-0.031600654
2	0x3cc183d1	0.023622425
3	0x00055928	4.91161e-40
4	0x3d20902e	0.0392
5	0x000557b9	4.90646e-40
6	0x800558fd	-4.911e-40
7	0x0005581a	4.90782e-40
8	0x00055ade	4.91774e-40
9	0x800557d6	-4.90687e-40
10	0x3d2af69d	0.041739095
11	0x0005582a	4.90805e-40
12	0x000557b0	4.90634e-40
13	0x3cb2d821	0.021831574
14	0x3d30beee	0.043150835
15	0xbcc4806a	-0.023987014
16	0x000558ab	4.90986e-40
17	0x3cb461ca	0.022019286
18	0x3d8789be	0.06618069
19	0x3ceaafff	0.028648375
20	0x00055a9c	4.91682e-40
21	0x80055a3c	-4.91547e-40
22	0x00055a3d	4.91549e-40
23	0x3d018f17	0.0316306
24	0x00055832	4.90816e-40
25	0x00055982	4.91287e-40
26	0xbd0cf15f	-0.034409877
27	0xbcd63885	-0.026149997
28	0xbb472223	-0.0030385337
29	0x3cf7e7c6	0.030261885
30	0x3d27635f	0.040866252
31	0x80055b04	-4.91828e-40
32	0x3d82fa98	0.06395453
33	0x3d24d6ae	0.040243797
34	0x00055928	4.91161e-40
35	0x000558f5	4.91089e-40
36	0xbce6319c	-0.028099827
37	0x0005579b	4.90604e-40
38	0x3ce80bff	0.028326033
39	0x80055805	-4.90753e-40
40	0x00055942	4.91197e-40
41	0x00055993	4.9131e-40
42	0xbbde4f3d	-0.0067843483
43	0x800559e4	-4.91424e-40
44	0x3c5bf125	0.013424193
45	0x000557d1	4.9068e-40
46	0x00055ac0	4.91732e-40
47	0x3cbe6e8d	0.023246074
48	0x00055ade	4.91774e-40
49	0x00055ad7	4.91765e-40
50	0x3bbf0082	0.005828918
51	0x3d37c883	0.044868957
52	0x3c872cc8	0.016500846
53	0x800559fa	-4.91455e-40
54	0x3d3c9ca5	0.046047825
55	0x0005577f	4.90565e-40
56	0x3c14f2ef	0.009091123
57	0x00055a38	4.91542e-40
58	0x00055958	4.91228e-40
59	0x3d8cc4e3	0.06873491
60	0xbb9e4ca3	-0.004830913
61	0x3c46422b	0.012100737
62	0x0005580a	4.9076e-40
63	0x3d82252e	0.06354748
64	0x000557d1	4.9068e-40
65	0xbc434c83	-0.011920097
66	0x3d59f40e	0.053211264
67	0xbc4e7e40	-0.0126033425
68	0x8006da4f	-6.29327e-40
69	0xb7b37b0f	-2.1395766e-05
70	0x3c95fbb5	0.0183085
71	0x000559b0	4.91351e-40
72	0x3d130279	0.03589103
73	0x3da7e620	0.0819819
74	0x00055968	4.9125e-40
75	0x8006a3bd	-6.09751e-40
76	0x800557b0	-4.90634e-40
77	0x00055956	4.91225e-40
78	0x80055772	-4.90547e-40
79	0x3d0d1471	0.034443323
80	0x3cb3b49d	0.021936709
81	0x800558bf	-4.91014e-40
82	0x3d1be204	0.038057342
83	0x000557dc	4.90695e-40
84	0x3d0674de	0.032826297
85	0x00055ab7	4.9172e-40
86	0x000559e5	4.91426e-40
87	0x00055938	4.91183e-40
88	0x3cb896fe	0.022532936
89	0x3d2a58e7	0.04158869
90	0x000559b8	4.91363e-40
91	0xbd205bbc	-0.039149985
92	0x3d0c5437	0.03426
93	0x00055901	4.91106e-40
94	0x3da59b46	0.08086257
95	0x00055aa0	4.91688e-40
96	0x3d8669c1	0.0656314
97	0x000557a3	4.90616e-40
98	0x3d0ad558	0.033894867
99	0x3d079d5c	0.033109054
100	0xbd34ca18	-0.044138044
101	0x3d279d99	0.04092178
102	0xbce47a29	-0.027890282
103	0x000557fd	4.90742e-40
104	0x3cc57207	0.024102224
105	0x00055af9	4.91812e-40
106	0x0005591b	4.91143e-40
107	0x3bb08646	0.0053871004
108	0xbd0c88ba	-0.03431008
109	0xbcbfa0c1	-0.023392083
110	0x3c9c766c	0.019099437
111	0x3d4f3f96	0.05059775
112	0x000557d0	4.90679e-40
113	0xbcb43939	-0.021999942
114	0x000557d0	4.90679e-40
115	0x00055a10	4.91486e-40
116	0x00055891	4.90949e-40
117	0xbc6d7739	-0.014493757
118	0x3d620366	0.055179022
119	0x00055a6d	4.91616e-40
120	0x3d79d445	0.06099345
121	0x00055910	4.91127e-40
122	0x3d528424	0.05139555
123	0x00055a20	4.91508e-40
124	0x000557a8	4.90623e-40
125	0x3d1528c9	0.03641585
126	0x3d736828	0.059425503
127	0x3d82f508	0.06394392

features.6.weight f4 [128, 128]
0	0x80055765	-4.90529e-40
1	0x3bcea9ea	0.0063068764
2	0x3c131db2	0.008979248
3	0x00055a88	4.91654e-40
4	0x3bbc61ee	0.005748979
5	0x00055a42	4.91556e-40
6	0x00055a3d	4.91549e-40
7	0x00055b12	4.91847e-40
8	0x80052555	-4.7257e-40
9	0x0005580b	4.90761e-40
10	0x3c37dab7	0.011221579
11	0x80055b02	-4.91825e-40
12	0x00055a00	4.91463e-40
13	0x3bd069cf	0.0063602696
14	0x3c54f188	0.012997039
15	0x3bb7300b	0.005590444
16	0x800557f7	-4.90733e-40
17	0x3c1ae3e7	0.00945375
18	0x3c318f95	0.010837455
19	0x3bd26e4d	0.0064218403
20	0x80055887	-4.90935e-40
21	0x80055892	-4.9095e-40
22	0x00055b04	4.91828e-40
23	0x3b7d7926	0.0038676946
24	0x00003be8	2.149e-41
25	0x800558a5	-4.90977e-40
26	0x3c2161eb	0.009850006
27	0x3bd05992	0.006358334
28	0x3c98a443	0.018633014
29	0x3c667d77	0.014067999
30	0x3c32c30c	0.010910761
31	0x00055762	4.90525e-40
32	0x3c465a5f	0.012106507
33	0x3c3e5aef	0.01161836
34	0x800559af	-4.9135e-40
35	0x00055836	4.90822e-40
36	0x3b678773	0.0035328537
37	0x00055997	4.91316e-40
38	0x3c56fe14	0.0131221
39	0x00055a73	4.91625e-40
40	0x00055968	4.9125e-40
41	0x000557a4	4.90617e-40
42	0x3c73d62a	0.014882604
43	0x00055aca	4.91746e-40
44	0x3c147810	0.009061828
45	0x800559e2	-4.91421e-40
46	0x00055424	4.89361e-40
47	0x3c60fefe	0.01373267
48	0x0005599e	4.91326e-40
49	0x80055874	-4.90908e-40
50	0x3ac7a4a8	0.0015231567
51	0x3c13efc6	0.009029334
52	0x3bd9f1fa	0.0066511603
53	0x00055951	4.91218e-40
54	0x3b0a402a	0.0021095374
55	0x00055881	4.90927e-40
56	0x3c0b32ca	0.008495996
57	0x80055a30	-4.9153e-40
58	0x00055a62	4.91601e-40
59	0x3c72064b	0.014772008
60	0xbb112830	-0.0022149198
61	0x3c2a5a8b	0.010397564
62	0x00055ae3	4.91781e-40
63	0x3c545703	0.012960198
64	0x000559f2	4.91444e-40
65	0x3ba079a4	0.004897313
66	0x3c1ab91c	0.009443548
67	0x3b2fec90	0.0026843883
68	0x000558a0	4.9097e-40
69	0x3b141158	0.0022593345
70	0x3c262784	0.010141257
71	0x8005592c	-4.91166e-40
72	0x3b278f24	0.0025567496
73	0x3c8360d6	0.016037386
74	0x00055aba	4.91724e-40
75	0x000558dd	4.91056e-40
76	0x800559e8	-4.9143e-40
77	0x80055ae8	-4.91788e-40
78	0x000559ff	4.91462e-40
79	0x3bd30b13	0.006440529
80	0x3c154536	0.009110739
81	0x80055a51	-4.91577e-40
82	0x3b0e6310	0.0021726526
83	0x800557f5	-4.9073e-40
84	0x3c8fef16	0.01757006
85	0x8005599e	-4.91326e-40
86	0x00066df9	5.90464e-40
87	0x80004c58	-2.7387e-41
88	0x3adac7ba	0.0016691603
89	0x3bcb055d	0.0061957077
90	0x00055978	4.91273e-40
91	0x3b83fa41	0.0040276353
92	0x3b88d0ed	0.0041752965
93	0x000557bc	4.9065e-40
94	0x3c89c46a	0.01681729
95	0x0004be80	4.3568e-40
96	0x3c49c5ef	0.012315257
97	0x8005587d	-4.90921e-40
98	0x3c18a76d	0.009317261
99	0x3b91de60	0.004451558
100	0x3bebb617	0.0071933377
101	0x3c47340a	0.012158403
102	0x3c36ec0d	0.011164677
103	0x000559b4	4.91357e-40
104	0x3c283315	0.010266085
105	0x00055911	4.91128e-40
106	0x800558b7	-4.91002e-40
107	0x3bc5c820	0.0060358196
108	0x3c34d624	0.011037383
109	0x3bd9e5ce	0.0066497093
110	0x3b5d0be2	0.0033729007
111	0x3c19c3ee	0.009385092
112	0x800557b2	-4.90637e-40
113	0x3be386d6	0.006943564
114	0x80055938	-4.91183e-40
115	0x80055820	-4.90791e-40
116	0x80055aaa	-4.91702e-40
117	0x3a4ac21d	0.00077346136
118	0x3c3971e0	0.011318654
119	0x000557c6	4.90665e-40
120	0x3c63f263	0.01391277
121	0x800557b8	-4.90645e-40
122	0x3c09fce1	0.008422107
123	0x00055ad0	4.91755e-40
124	0x80054e69	-4.87306e-40
125	0x3c2a5ebd	0.010398564
126	0x3c57ca11	0.013170735
127	0x3c81cf5a	0.015845943
128	0x80055884	-4.90931e-40
129	0x3c7af79a	0.015317822
130	0x3c2ea948	0.010660477
131	0x00055758	4.9051e-40
132	0x3b793706	0.0038027181
133	0x800559e9	-4.91431e-40
134	0x80055930	-4.91172e-40
135	0x800557b6	-4.90642e-40
136	0x8005581c	-4.90785e-40
137	0x0003ec04	3.60173e-40
138	0x3cda7717	0.026668115
139	0x80055744	-4.90482e-40
140	0x00055ae0	4.91777e-40
141	0x3bf05720	0.007334605
142	0x3c491c87	0.012274868
143	0x3c5c974c	0.013463806
144	0x0005588b	4.90941e-40
145	0x3c026b29	0.007960119
146	0x3c177f3a	0.009246642
147	0x3be187ec	0.006882658
148	0x800558a5	-4.90977e-40
149	0x000558a8	4.90981e-40
150	0x80055ab8	-4.91721e-40
151	0x3b1bb08d	0.0023756356
152	0x8000aabc	-6.1248e-41
153	0x00055831	4.90815e-40
154	0x3cc02ba4	0.02345831
155	0x3c786180	0.015159965
156	0x3d37622d	0.044771362
157	0x3d0ebd8e	0.034848742
158	0x3c45dccc	0.012076568
159	0x800559a7	-4.91339e-40
160	0x3c81ef18	0.01586108
161	0x3c7d0e38	0.015445285
162	0x800559a1	-4.9133e-40
163	0x0000e332	8.1502e-41
164	0x3bfdc485	0.007744374
165	0x8005585d	-4.90876e-40
166	0x3c2f8990	0.01071395
167	0x80055a6d	-4.91616e-40
168	0x0005587f	4.90924e-40
169	0x000558d2	4.9104e-40
170	0x3d0af9eb	0.033929747
171	0x0005582d	4.90809e-40
172	0x3c42c46e	0.011887653
173	0x000557de	4.90698e-40
174	0x800558d4	-4.91043e-40
175	0x3ceaf710	0.028682262
176	0x00055837	4.90823e-40
177	0x8005585f	-4.90879e-40
178	0x3af01ad7	0.0018318546
179	0x3c2d208c	0.010566842
180	0x3c078307	0.008270985
181	0x0005580d	4.90764e-40
182	0xbb047a50	-0.0020214505
183	0x800558ef	-4.91081e-40
184	0x3c351488	0.011052258
185	0x800559e0	-4.91419e-40
186	0x00055a28	4.9152e-40
187	0x3c490ddd	0.012271372
188	0xbb7657b8	-0.0037588906
189	0x3c5a8ff8	0.013339989
190	0x8004d87d	-4.45003e-40
191	0x3c377869	0.011198142
192	0x000453bd	3.97382e-40
193	0x3bf41a1e	0.0074494025
194	0x3bcd09cc	0.0062572714
195	0x3b9d2f12	0.004796871
196	0x000558e1	4.91061e-40
197	0x3b3ee7c2	0.0029129838
198	0x3c804979	0.015660034
199	0x800558be	-4.91012e-40
200	0xb8b5b128	-8.6637505e-05
201	0x3c831558	0.016001388
202	0x800559f9	-4.91454e-40
203	0x00019363	1.44708e-40
204	0x00055a68	4.91609e-40
205	0x80055a79	-4.91633e-40
206	0x00056372	4.94852e-40
207	0x3c531e11	0.012885586
208	0x3cb5056f	0.022097318
209	0x00055806	4.90754e-40
210	0xba8015bf	-0.0009772106
211	0x800557f6	-4.90732e-40
212	0x3d322478	0.04349181
213	0x8005588d	-4.90944e-40
214	0x800557b6	-4.90642e-40
215	0x800557dc	-4.90695e-40
216	0x39235f8a	0.00015580482
217	0x3b60a5ae	0.003427844
218	0x00055a28	4.9152e-40
219	0x3c18b090	0.0093194395
220	0x3b19e422	0.0023481925
221	0x000558ab	4.90986e-40
222	0x3c84f575	0.016230324
223	0x00055980	4.91284e-40
224	0x3c81d3b9	0.015848028
225	0x8005592b	-4.91165e-40
226	0x3c365088	0.011127599
227	0x3b151e4e	0.0022753659
228	0x3c8ebe80	0.017424822
229	0x3c8561f2	0.016282056
230	0x3cceb273	0.025231576
231	0x00055a62	4.91601e-40
232	0x3c44b148	0.012005158
233	0x00055a14	4.91491e-40
234	0x800559cc	-4.9139e-40
235	0x3c0dc0be	0.00865191
236	0x3ccd8afb	0.025090685
237	0x3c8212be	0.015878078
238	0x3b381cc2	0.0028093313
239	0x3c1d626d	0.009605986
240	0x80055a2d	-4.91526e-40
241	0x3c8850fc	0.016640179
242	0x80055858	-4.90869e-40
243	0x80056558	-4.95533e-40
244	0x0002663e	2.20349e-40
245	0x3b0b77d2	0.0021281135
246	0x3c40a2a5	0.0117575275
247	0x00055935	4.91179e-40
248	0x3c7710e4	0.015079711
249	0x800557d0	-4.90679e-40
250	0x3c207e21	0.0097956965
251	0x00055b10	4.91845e-40
252	0x80055b09	-4.91835e-40
253	0x3cd38ed3	0.02582494
254	0x3c1fbb01	0.009749175
255	0x3c22ed02	0.009944202

features.6.bias f4 [128]
0	0x3dacad0e	0.08431445
1	0x3b8e40f4	0.004341239
2	0xbd102ef5	-0.03520103
3	0x00055a0a	4.91477e-40
4	0x3d44689c	0.047951326
5	0x000557af	4.90632e-40
6	0x8005da7a	-5.37552e-40
7	0x00055865	4.90887e-40
8	0x3c92bf28	0.017913416
9	0x3dbf8400	0.09351349
10	0x8005597e	-4.91281e-40
11	0x00055b09	4.91835e-40
12	0x3db28332	0.0871643
13	0x3d6806d7	0.056647148
14	0x00055890	4.90948e-40
15	0x3c2e97ee	0.01065634
16	0x800558c9	-4.91028e-40
17	0x00055970	4.91262e-40
18	0x3d9dd86a	0.07707293
19	0xbc065df9	-0.008201116
20	0x800558eb	-4.91075e-40
21	0x3c8a7de6	0.016905736
22	0x00055ae8	4.91788e-40
23	0x3d9f47bf	0.07777356
24	0x3b88b2e4	0.004171716
25	0x00055805	4.90753e-40
26	0x3d8bef56	0.06832759
27	0x800559cd	-4.91392e-40
28	0x80061282	-5.57652e-40
29	0x3c8e7189	0.017388122
30	0x80055a6c	-4.91615e-40
31	0x80055762	-4.90525e-40
32	0x00055918	4.91138e-40
33	0x3d5e8aba	0.05433152
34	0x00055b0a	4.91836e-40
35	0x3d9607d9	0.073257156
36	0x800557b8	-4.90645e-40
37	0x3c7baa97	0.015360496
38	0x3da3a7af	0.079909675
39	0x8005594d	-4.91213e-40
40	0x00055a63	4.91602e-40
41	0xbd2fb07b	-0.042892914
42	0x8005580f	-4.90767e-40
43	0x80055acd	-4.9175e-40
44	0x3d44f962	0.048089392
45	0xbc5122b8	-0.012764625
46	0x80055991	-4.91308e-40
47	0x000559af	4.9135e-40
48	0x3cf6c538	0.030123338
49	0x800572a1	-5.00299e-40
50	0x3d4024ec	0.04691021
51	0x00055820	4.90791e-40
52	0xbced06ce	-0.028933909
53	0x3d96afdd	0.07357762
54	0x00055774	4.9055e-40
55	0x000558a1	4.90972e-40
56	0x00055a33	4.91535e-40
57	0xbd1f3e3e	-0.03887772
58	0x000558e0	4.9106e-40
59	0x3d9b541d	0.07584403
60	0xbb7735a4	-0.0037721181
61	0x00055779	4.90557e-40
62	0x00055913	4.91131e-40
63	0x00055941	4.91196e-40
64	0x00055ad5	4.91762e-40
65	0x3d8fe2f4	0.0702571
66	0x3da76d6f	0.0817517
67	0x000558c8	4.91026e-40
68	0xbd08299a	-0.0332428
69	0x00055997	4.91316e-40
70	0x3da92854	0.08259645
71	0x000559f8	4.91452e-40
72	0x00055a93	4.9167e-40
73	0x3d007024	0.031356946
74	0xbd818be9	-0.06325514
75	0x3d859353	0.065222405
76	0x3db08842	0.08619739
77	0x00055abe	4.9173e-40
78	0x3dac3638	0.08408779
79	0x800557c3	-4.9066e-40
80	0x00055a47	4.91563e-40
81	0x80056eb5	-4.98892e-40
82	0x3d8537c1	0.06504775
83	0x00055a2b	4.91524e-40
84	0x00055ab7	4.9172e-40
85	0x3d863291	0.065526135
86	0x80055879	-4.90915e-40
87	0x3bffd3bb	0.0078072227
88	0x3d9edf31	0.07757414
89	0x0005596f	4.9126e-40
90	0x00055870	4.90903e-40
91	0x3cd57669	0.026057439
92	0x80055aca	-4.91746e-40
93	0x000559ab	4.91344e-40
94	0x3b982e24	0.0046441723
95	0x80055a6e	-4.91618e-40
96	0x3daf7719	0.08567638
97	0x3d809bce	0.062797174
98	0x3dae458f	0.08509361
99	0x3cc81bdb	0.024427345
100	0x3d6c07dc	0.057624683
101	0x000558c9	4.91028e-40
102	0x8006121d	-5.57511e-40
103	0x00055a88	4.91654e-40
104	0xbd1f2b64	-0.03885974
105	0x800559c1	-4.91375e-40
106	0x3cf8900d	0.030342126
107	0x3da558f5	0.08073608
108	0x3d8da0be	0.06915425
109	0xbcbff2c7	-0.023431195
110	0x800609d5	-5.5454e-40
111	0x80055a00	-4.91463e-40
112	0x800557a2	-4.90614e-40
113	0xbc6ef97c	-0.014585849
114	0x000559dd	4.91414e-40
115	0x80055aae	-4.91707e-40
116	0x00055770	4.90544e-40
117	0x00055788	4.90578e-40
118	0x80055acf	-4.91753e-40
119	0x3d5b85bb	0.053594332
120	0x000558ed	4.91078e-40
121	0x8005590c	-4.91121e-40
122	0x00055934	4.91178e-40
123	0x3d81179e	0.06303333
124	0x800558d7	-4.91047e-40
125	0x00055889	4.90938e-40
126	0x00055abe	4.9173e-40
127	0xbd659f7c	-0.0560603

features.8.weight f4 [128, 128]
0	0x8005576f	-4.90543e-40
1	0x00055829	4.90803e-40
2	0x00055779	4.90557e-40
3	0x000557db	4.90694e-40
4	0x8005582b	-4.90806e-40
5	0x00055ad1	4.91756e-40
6	0x00055a55	4.91583e-40
7	0x80055a3e	-4.9155e-40
8	0x80055ab8	-4.91721e-40
9	0x00055891	4.90949e-40
10	0x8005586b	-4.90896e-40
11	0x000558c0	4.91015e-40
12	0x00055aa0	4.91688e-40
13	0x800559f8	-4.91452e-40
14	0x80055ade	-4.91774e-40
15	0x80061ccc	-5.61343e-40
16	0x000558a2	4.90973e-40
17	0x80055a60	-4.91598e-40
18	0x80055883	-4.9093e-40
19	0x80055911	-4.91128e-40
20	0x000559d0	4.91396e-40
21	0x8005580b	-4.90761e-40
22	0x80055a4c	-4.9157e-40
23	0x800558df	-4.91058e-40
24	0x8006c2b0	-6.20854e-40
25	0x80055a2a	-4.91522e-40
26	0x8005599f	-4.91327e-40
27	0x00055a7f	4.91641e-40
28	0x80055972	-4.91264e-40
29	0x000558ec	4.91077e-40
30	0x000558bc	4.9101e-40
31	0x000558d5	4.91044e-40
32	0x000557b3	4.90638e-40
33	0x80055958	-4.91228e-40
34	0x800557ee	-4.90721e-40
35	0x800558af	-4.90991e-40
36	0x80055979	-4.91274e-40
37	0x80055802	-4.90749e-40
38	0x800557a8	-4.90623e-40
39	0x800559d5	-4.91403e-40
40	0x8005585a	-4.90872e-40
41	0x00055985	4.91291e-40
42	0x8005597b	-4.91277e-40
43	0x800558aa	-4.90984e-40
44	0x8005592c	-4.91166e-40
45	0x80055982	-4.91287e-40
46	0x800558bc	-4.9101e-40
47	0x80055a3b	-4.91546e-40
48	0x80055979	-4.91274e-40
49	0x8005591d	-4.91145e-40
50	0x80055860	-4.9088e-40
51	0x8005588e	-4.90945e-40
52	0x80055ae8	-4.91788e-40
53	0x8005598e	-4.91304e-40
54	0x000557a6	4.9062e-40
55	0x80055a6e	-4.91618e-40
56	0x80055809	-4.90759e-40
57	0x80057ebb	-5.0464e-40
58	0x00055946	4.91203e-40
59	0x80057fe4	-5.05056e-40
60	0x80055a2f	-4.91529e-40
61	0x0005577c	4.90561e-40
62	0x80055862	-4.90883e-40
63	0x80055aa7	-4.91697e-40
64	0x80055740	-4.90477e-40
65	0x80055aea	-4.91791e-40
66	0x80055bc1	-4.92093e-40
67	0x00055862	4.90883e-40
68	0x0004251c	3.80654e-40
69	0x800559c5	-4.91381e-40
70	0x80055862	-4.90883e-40
71	0x800559d8	-4.91407e-40
72	0x80055a15	-4.91493e-40
73	0x80055ac6	-4.91741e-40
74	0x800558d7	-4.91047e-40
75	0x800558fe	-4.91102e-40
76	0x80055a55	-4.91583e-40
77	0x8005575c	-4.90516e-40
78	0x8005598c	-4.91301e-40
79	0x000558cb	4.9103e-40
80	0x00055aa9	4.917e-40
81	0x00055ab6	4.91718e-40
82	0x8005ad8d	-5.21436e-40
83	0x80055a12	-4.91489e-40
84	0x80055775	-4.90551e-40
85	0x80055971	-4.91263e-40
86	0x00055868	4.90892e-40
87	0x80055a5e	-4.91595e-40
88	0x80060051	-5.51126e-40
89	0x000557c0	4.90656e-40
90	0x00055974	4.91267e-40
91	0x800557a8	-4.90623e-40
92	0x800559ce	-4.91393e-40
93	0x00055845	4.90843e-40
94	0x80055732	-4.90457e-40
95	0x80055734	-4.9046e-40
96	0x800557ec	-4.90718e-40
97	0x800558c3	-4.91019e-40
98	0x0005574a	4.90491e-40
99	0x00055ada	4.91769e-40
100	0x80055af3	-4.91804e-40
101	0x80055aaa	-4.91702e-40
102	0x80055a45	-4.9156e-40
103	0x8005594d	-4.91213e-40
104	0x000558bb	4.91008e-40
105	0x80055b05	-4.91829e-40
106	0x80055aaa	-4.91702e-40
107	0x800558fa	-4.91096e-40
108	0x80055845	-4.90843e-40
109	0x80055abf	-4.91731e-40
110	0x00055744	4.90482e-40
111	0x00055a1a	4.915e-40
112	0x800558c8	-4.91026e-40
113	0x80055a2c	-4.91525e-40
114	0x80055a11	-4.91487e-40
115	0x800558a4	-4.90976e-40
116	0x00055962	4.91242e-40
117	0x00055825	4.90798e-40
118	0x8005593c	-4.91189e-40
119	0x800559e5	-4.91426e-40
120	0x000558c0	4.91015e-40
121	0x00055a58	4.91587e-40
122	0x80055adb	-4.9177e-40
123	0x8005f774	-5.47947e-40
124	0x80055942	-4.91197e-40
125	0x00055aeb	4.91793e-40
126	0x800558c4	-4.9102e-40
127	0x80055918	-4.91138e-40
128	0x80055842	-4.90838e-40
129	0x800559aa	-4.91343e-40
130	0x80032b65	-2.91074e-40
131	0x000558ac	4.90987e-40
132	0x000559a6	4.91337e-40
133	0x800557c6	-4.90665e-40
134	0x800557ff	-4.90745e-40
135	0x80055b05	-4.91829e-40
136	0x80055989	-4.91297e-40
137	0x800557c1	-4.90658e-40
138	0x0005599b	4.91322e-40
139	0x8005576b	-4.90537e-40
140	0x800558d5	-4.91044e-40
141	0x80055a99	-4.91678e-40
142	0x000559c9	4.91386e-40
143	0x80055a9d	-4.91683e-40
144	0x000557a7	4.90621e-40
145	0x00055ad2	4.91758e-40
146	0x80055842	-4.90838e-40
147	0x8006181f	-5.59666e-40
148	0x80055823	-4.90795e-40
149	0x800559ed	-4.91437e-40
150	0x800557e1	-4.90702e-40
151	0x80055a7f	-4.91641e-40
152	0x800557ef	-4.90722e-40
153	0x800557d6	-4.90687e-40
154	0x8005d3f7	-5.35216e-40
155	0x80055747	-4.90487e-40
156	0x0005581c	4.90785e-40
157	0x800595e6	-5.12951e-40
158	0x0005592e	4.91169e-40
159	0x80055ab8	-4.91721e-40
160	0x000557cd	4.90674e-40
161	0x80055750	-4.905e-40
162	0x00055773	4.90548e-40
163	0x80055b0b	-4.91838e-40
164	0x00055ace	4.91752e-40
165	0x800558b9	-4.91005e-40
166	0x80055ad0	-4.91755e-40
167	0x000559eb	4.91434e-40
168	0x000559fe	4.9146e-40
169	0x80011d93	-1.02445e-40
170	0x0005594b	4.9121e-40
171	0x80055974	-4.91267e-40
172	0x8006a363	-6.09625e-40
173	0x80055a1b	-4.91501e-40
174	0x80055a13	-4.9149e-40
175	0x800559f5	-4.91448e-40
176	0x80055777	-4.90554e-40
177	0x800559c3	-4.91378e-40
178	0x800581cd	-5.05741e-40
179	0x80055abc	-4.91727e-40
180	0x000559e6	4.91427e-40
181	0x80055ada	-4.91769e-40
182	0x800557e0	-4.90701e-40
183	0x80055808	-4.90757e-40
184	0x80055a3c	-4.91547e-40
185	0x80056328	-4.94748e-40
186	0x80055aec	-4.91794e-40
187	0x800559f7	-4.91451e-40
188	0x80055a42	-4.91556e-40
189	0x80055aef	-4.91798e-40
190	0x8005579c	-4.90606e-40
191	0x000557cb	4.90672e-40
192	0x80055ac5	-4.9174e-40
193	0x80055b09	-4.91835e-40
194	0x8006ae68	-6.13578e-40
195	0x8005591a	-4.91141e-40
196	0x80064a91	-5.77762e-40
197	0x8005578e	-4.90586e-40
198	0x80055784	-4.90572e-40
199	0x80055882	-4.90928e-40
200	0x8005584d	-4.90854e-40
201	0x80055871	-4.90904e-40
202	0x00055b0d	4.9184e-40
203	0x80058652	-5.07363e-40
204	0x8005b3e9	-5.23717e-40
205	0x000557f2	4.90726e-40
206	0x8005592c	-4.91166e-40
207	0x00055a75	4.91627e-40
208	0x00055b07	4.91832e-40
209	0x00055a89	4.91655e-40
210	0x80055999	-4.91319e-40
211	0x80055908	-4.91116e-40
212	0x800557ab	-4.90627e-40
213	0x8005dec2	-5.39088e-40
214	0x000558e5	4.91067e-40
215	0x8005576e	-4.90541e-40
216	0x80055aea	-4.91791e-40
217	0x80060ff1	-5.56732e-40
218	0x00055836	4.90822e-40
219	0x80055993	-4.9131e-40
220	0x800559ce	-4.91393e-40
221	0x00055a41	4.91554e-40
222	0x8005577f	-4.90565e-40
223	0x00055841	4.90837e-40
224	0x8006d619	-6.27817e-40
225	0x800557ea	-4.90715e-40
226	0x8005599e	-4.91326e-40
227	0x80055823	-4.90795e-40
228	0x800626ed	-5.64977e-40
229	0x800558b1	-4.90994e-40
230	0x000558c2	4.91018e-40
231	0x80055a05	-4.9147e-40
232	0x800631a5	-5.68822e-40
233	0x80055863	-4.90885e-40
234	0x80055970	-4.91262e-40
235	0x8005579f	-4.9061e-40
236	0x80055ab2	-4.91713e-40
237	0x80055978	-4.91273e-40
238	0x000557f6	4.90732e-40
239	0x80055f7c	-4.93431e-40
240	0x00055a2a	4.91522e-40
241	0x80055aa8	-4.91699e-40
242	0x000557a9	4.90624e-40
243	0x000557c9	4.90669e-40
244	0x800558ae	-4.9099e-40
245	0x80055800	-4.90746e-40
246	0x80066cd6	-5.90056e-40
247	0x80055a56	-4.91584e-40
248	0x000559e9	4.91431e-40
249	0x8005c3ec	-5.29461e-40
250	0x00055a51	4.91577e-40
251	0x80055a6f	-4.91619e-40
252	0x800558a4	-4.90976e-40
253	0x8005578f	-4.90588e-40
254	0x80055a5b	-4.91591e-40
255	0x80055aae	-4.91707e-40
