model.pth (torch, 965278 bytes, 33 tensors)

features.0.weight f4 [128, 100]
00000000: 914e 1cbc 7b5a 0500 3858 0500 e057 0580
00000010: eb59 0580 ec5a 0500 bf5a 0500 235a 0500
00000020: 3757 0500 1c5a 0500 c5c9 9eb9 9459 0580
00000030: a157 0580 8d6f 4d3c b857 0580 fabe 27ba
00000040: bd58 0500 b97b ad3a cdce 853c f035 853c
00000050: 920f aebc b0f8 173c 584f 123d fcb3 143b
00000060: becd 6a3c 9560 633c 961c 7b3c 3611 143c
00000070: 5efa 813c bccf c23a 2b58 0500 7b1b 733c
00000080: 2c7d 333c 03d4 b43b 6d8f ee3c 9833 34bb
00000090: c7d6 8abb 840c 2b3c a244 703c b0f5 a8bb
000000a0: e65d debc a968 dcbb 3924 3fbd 719d 0c3d
000000b0: 8495 863c 3a56 b33b 3db8 ad3c 4df4 62bc
000000c0: 2e8c a93d c8d3 aa3b e024 35bd 894c 4abd
000000d0: 28d9 b6bd 2b8e 183d 4477 273c daf7 e33c
000000e0: 90a8 4b3d f8e1 c83c 7fbe c03d 7562 943c
000000f0: 0440 b1bc 03c9 19bd 99d7 88bb 2e84 333d
00000100: df41 673c cb0c 8b3b 1476 edba 3b3e 913c
00000110: 36ab 443d ee90 013c 8724 0c3b 9dee 1a3d
00000120: ed37 bc3d 48cd a63c 99d8 8bba e2af 07bc
00000130: 84cc 3ebc 8b50 7439 5075 8dbd f842 123c
00000140: 1524 8f3c c35c 083d 3885 943d 6ccf 86bc
00000150: 0499 e03c 9515 5eba 44d3 b9bc abda 92bb
00000160: 5fd4 1dbd 9766 023c 5eac f33c d3ff 1c3d
00000170: 9809 5a3c ef49 03bd dbea aabb f2b7 823c
00000180: 307a 6d3c 5e2c e43b 31d2 23bc bd68 da3b
00000190: 1021 123d 8459 0580 3d5a 0580 9b5a 0580
000001a0: 5f58 0500 1059 0500 9859 0580 575a 0500
000001b0: 6e5a 0500 d058 0500 aad3 a239 ee59 0580
000001c0: 3659 0500 b53c dd3c 0459 0500 8528 ba3a
000001d0: ca58 0500 72c9 9fbb becf 06bc a178 cb3c
000001e0: 0723 a43b a4df 66bc 61b5 ce3c 43ca 4bbc
000001f0: ca6f 87bc 7680 6e3c aaee 843a c46a b6bc
00000200: d503 b33c 89f8 333b f259 0580 faf5 c2bb
00000210: 304e 9c3a 660e 803c ea0e 8b3c 0bc9 0e3b
00000220: 1519 793a f771 49bd ef2e 0f3d 268d 86bb
00000230: 272c 29ba 51e6 8dbb ade0 c135 bf9e 873c
00000240: 2068 4a3d 924b d13c b831 bfbb e245 6abd
00000250: d181 0839 ede5 a63b 0d10 b73b e4f5 5f3c
00000260: d90c 52bc 96aa 903c fcb6 ef3c c743 d9bb
00000270: a679 90ba ae75 24bd 7a4a 223b 68d0 2d3c
00000280: 6b01 febb f68b 3b3b b6cb 743c 5ee8 0bbd
00000290: 3fb0 e33b c08d 013d 5392 63bc d6e3 ad3c
000002a0: fb53 8cbc 2ecb da3c b0f7 343c 71d7 603b
000002b0: f2d1 7b3c 94c6 3f3d 6ac5 8dbd 14e8 863c
000002c0: ed2f 493c ba3a 7fbc e775 013c e3d1 eb3a
000002d0: b532 53bc 6740 983b 5ddd ae3b e8b3 f03c
000002e0: ae59 883a a171 0dbd 4d35 e03c 1595 e6bb
000002f0: aab1 b53c af6c 4bbc 227c 9bbc d339 b03c
00000300: 2362 1fbc 4761 983a d0d3 10bd 2817 d33c
00000310: 978d 69bc 050c c43c c2de 183d 0ccd 38bb
00000320: 758e d53c 2d5a 0500 ee58 0580 e357 0500
00000330: ed57 0580 6059 0580 335a 0580 9f58 0500
00000340: 3858 0580 4f58 0580 a05a 0580 ab57 0580
00000350: 6358 0580 a06f ecbc 9f59 0500 7958 0a3d
00000360: 3d58 0500 a2a4 333c 0b24 dbbb 3cee 283c
00000370: 9988 883b bd82 7ebc c131 debb d7ee 433d
00000380: 4fb0 e0bb b888 d63b bcd1 e9bb cf5a efbc
00000390: baeb c8ba 7c06 31bc db59 0580 b060 323d
000003a0: 3dfb 16bc 7b90 383c 3084 16bc 2533 65bc
000003b0: 7293 303c 3fb9 50bc d7c2 dfbc 8445 8c3b
000003c0: 7935 9fba 92cf 3c3c ba2f 2bbd b42d 973c
000003d0: be00 103d a84f 27bd d4f7 88b8 2a8a e13c
000003e0: f158 afbc 4efe ea3b 69ba 8b3c a2d1 893c
000003f0: a3ca cbbc f1ed df39 9666 163d 62e7 93bc
-0.009540216 4.91636e-40 4.90824e-40 -4.90701e-40 -4.91434e-40 4.91794e-40 4.91731e-40 4.91512e-40
4.90464e-40 4.91503e-40 -0.00030286438 -4.91312e-40 -4.90613e-40 0.012538803 -4.90645e-40 -0.0006399002
4.91011e-40 0.0013235725 0.016333962 0.016261071 -0.021247659 0.0092756 0.0357202 0.0022690287
0.014331279 0.013878007 0.01532664 0.0090373065 0.015866455 0.0014862935 4.90806e-40 0.014838095
0.010955136 0.005518438 0.029121125 -0.0027496573 -0.0042370292 0.010439996 0.014664801 -0.0051562414
-0.027144384 -0.0067263437 -0.046665404 0.034329835 0.016428716 0.0054729255 0.021206016 -0.013852191
0.0827869 0.0052132346 -0.04422462 -0.049389396 -0.08928138 0.037244957 0.010221306 0.027828146
0.0497213 0.024521813 0.09411334 0.018113354 -0.02163697 -0.037545215 -0.004176092 0.04382723
0.014114826 0.0042434684 -0.0018116855 0.01772987 0.048014842 0.007908089 0.0021384077 0.037825216
0.091903545 0.020361558 -0.001066941 -0.00828168 -0.01164544 0.00023299658 -0.06907141 0.008927099
0.01747326 0.03329159 0.07251972 -0.016456328 0.027416714 -0.0008471844 -0.022683747 -0.0044816337
-0.03853261 0.00795903 0.029745277 0.03832991 0.013307951 -0.03205293 -0.0052159852 0.015956853
0.014494464 0.006963297 -0.009998844 0.006665318 0.035676062 -4.9129e-40 -4.91549e-40 -4.9168e-40
4.90879e-40 4.91127e-40 -4.91318e-40 4.91585e-40 4.91618e-40 4.91037e-40 0.0003105675 -4.91438e-40
4.9118e-40 0.027006486 4.9111e-40 0.001420275 4.91029e-40 -0.004876309 -0.008228241 0.024837794
0.0050090584 -0.014091406 0.025232973 -0.01243836 -0.016532797 0.014556995 0.0010141928 -0.022267707
0.021852413 0.002746137 -4.91444e-40 -0.005949733 0.0011925157 0.015631866 0.016974885 0.0021787311
0.00095023337 -0.04918095 0.03495687 -0.0041061817 -0.00064534176 -0.0043304344 1.444501e-06 0.016555188
0.049415708 0.02554873 -0.0058347844 -0.05719555 0.00013018331 0.0050933273 0.00558663 0.013669465
-0.012820446 0.017659467 0.029262058 -0.006630394 -0.0011022582 -0.04015129 0.002476363 0.01060877
-0.007751634 0.0028617359 0.014941147 -0.03415715 0.0069485004 0.031629324 -0.013889867 0.021226805
-0.017129889 0.026708212 0.011045381 0.00343081 0.015369879 0.04682024 -0.06922419 0.016468085
0.012279493 -0.015577966 0.007901645 0.0017991628 -0.0128905075 0.004646349 0.005336447 0.029382661
0.0010402703 -0.034532193 0.027369166 -0.007036815 0.022179443 -0.012416049 -0.01898009 0.021511948
-0.009727987 0.0011625671 -0.03535825 0.025767878 -0.014254949 0.023931513 0.037321813 -0.002819839
0.026068905 4.91526e-40 -4.9108e-40 4.90705e-40 -4.9072e-40 -4.91239e-40 -4.91535e-40 4.90969e-40
-4.90824e-40 -4.90857e-40 -4.91688e-40 -4.90627e-40 -4.90885e-40 -0.02886182 4.91327e-40 0.03377578
4.90831e-40 0.0109645445 -0.0066876463 0.010310706 0.0041666743 -0.0155341 -0.0067808335 0.047835197
-0.006856955 0.00654706 -0.007135598 -0.029218106 -0.0015329041 -0.010804769 -4.91412e-40 0.04354924
-0.009215173 0.011264916 -0.009186789 -0.013989245 0.010777341 -0.012739479 -0.027314587 0.004280748
-0.0012146673 0.011524098 -0.041793562 0.01845441 0.035156958 -0.04084745 -6.531147e-05 0.027531702
-0.021404715 0.0071714288 0.01705666 0.016823594 -0.024876898 0.00042711155 0.036718927 -0.018054668

features.0.bias f4 [128]
00000000: 2cc5 87bb 6ec4 da3c 95ef f73c 360e 3d3c
00000010: 7a0a 3a3c b377 37bc bb61 4d3b 8512 f13c
00000020: 77ea 933c f029 b33c 6b0d 0c3d bbfa 16bc
00000030: 6532 8f3c 40e6 c43b 8105 1b3c bd84 a63c
00000040: 64ad c63a 23a1 debb 2a1c 1c3d b3dd 903c
00000050: 4f4b b0bd 813a 0f3d 6bf7 87bb 755c 053d
00000060: de03 15bd 2a79 853c 972b 0d3d bc34 1e3d
00000070: 9cd3 ef3c fa1b 5b3c 6eb1 2b3d 689e 0f3d
00000080: a582 f43c 8341 b23c 405a 953c 4b0c 923c
00000090: 56e4 5a3c e5f6 4f3b 4874 83bb 6272 9b3c
000000a0: 810e e73c 44cc 1a3d 7c5c 0f3d 6adb 983d
000000b0: 5941 24bd 4413 143c 8cef 7d3c 9089 293d
000000c0: 5cf0 a7bc 97bf dc3b 696b 2f3c 76f7 f93c
000000d0: 05c6 e63c 668a c03c 3223 763c ee6b f13b
000000e0: 9545 433c 6e39 8c3c 0a4d bb3c 1b12 a13b
000000f0: 20fb fd3c ebda d2bb 0a9f d03c b7db d63c
00000100: 684e 103d ae27 bf3b 7ecf 653c 0a8c 993c
00000110: 4b06 e33c 978f 923c eedd 993c 5fe0 dd3c
00000120: 3cb8 9c3c d731 663c 71c4 003d 87e1 eb3c
00000130: 3db6 b0bc 4dd5 f73b 9926 96ba 838e d53c
00000140: 1ada ab3d 0ff3 dfbd 91c6 cebc 570a a23c
00000150: 2165 343d 3bf8 a53c 669f 623c 8d36 ad3c
00000160: f2c2 9f3c 2e37 893c b9bf 2d3d fb06 513c
00000170: b42a fd3c daca c23c 5d85 e43c 2acd b93c
00000180: 8c86 dc3b d93b ee3b 532e 9f3c 6d7f bf3b
00000190: 7ce0 963c da5b 41bc b616 113b 1d5d e73c
000001a0: b6d5 563c c948 313d f015 eb3b 3358 933c
000001b0: 28bf d83c 97ad 953c b935 6bbc 3864 433c
000001c0: 0542 223d 026b d2bb 5a92 ea3c 9f7f 0c3d
000001d0: acf6 983c f8e5 093d 58ab ba3c 13bf af3c
000001e0: af88 123c 6141 c73c b4d3 043d 8105 eb3c
000001f0: 2b6d f43c a56d 7b3c d0e7 413c b419 ed3b
-0.0041433778 0.026704993 0.030265609 0.011539033 0.011355037 -0.011197972 0.003133877 0.029427776
0.018056137 0.021870583 0.034192484 -0.009215052 0.017480085 0.0060088933 0.009461761 0.020326966
0.0015157876 -0.0067941113 0.038112797 0.01768384 -0.08608114 0.034967903 -0.0041493676 0.032558877
-0.03638064 0.016293127 0.0344654 0.03862451 0.029275708 0.013373369 0.041917257 0.035063177
0.029847452 0.021759754 0.018231511 0.017828127 0.013360104 0.0031732854 -0.0040116645 0.01897544
0.028205158 0.03779246 0.03500031 0.07463725 -0.040101383 0.009037796 0.015499007 0.041390955
-0.020500354 0.0067367065 0.010706761 0.030513506 0.028170595 0.023503494 0.01502304 0.0073676025
0.011918445 0.017117228 0.022863884 0.0049154884 0.031003535 -0.0064347885 0.02546646 0.026227815
0.035231024 0.0058335876 0.014026521 0.018743534 0.027712962 0.017890735 0.018782582 0.027084528
0.019130819 0.014049969 0.03143734 0.028794063 -0.021571273 0.007563269 -0.0011455595 0.026068931
0.08391209 -0.109350316 -0.025241168 0.019780321 0.044041757 0.020259967 0.013831949 0.021144176
0.019502137 0.016749945 0.04241917 0.012758012 0.030904151 0.023778368 0.027895624 0.022680838
0.0067299064 0.007270318 0.019431269 0.0058440478 0.01841759 -0.011801684 0.002213878 0.028242642
0.013112476 0.043282304 0.007174246 0.017986393 0.026458338 0.01827125 -0.01435607 0.0119257495
0.039613742 -0.0064214477 0.028634239 0.034301396 0.01867231 0.03366658 0.022786781 0.021453416
0.008943721 0.024323167 0.03242846 0.028689148 0.029837212 0.0153459655 0.011835054 0.00723573

features.2.weight f4 [128, 128]
00000000: 7bbe 303c d74d bb3b 99fa 323c b471 b63c
00000010: e622 e93c ff08 c03c 1b67 b8bb c0ec 91bb
00000020: 5ec5 fd3b 6cbf 20bc fb6e 993c c14f 1a3d
00000030: 90b5 bd3c e91a 573c 1147 08bd 86df be3b
00000040: ba03 febb 9d53 dc3b 25f5 74bc f64c f2bc
00000050: d914 f43c f8e7 2dbc f441 89bb 4486 ac3c
00000060: 3d3c 9238 438d 2d3c 838d 8d3a d901 c73a
00000070: a68f f8b9 f27e 85bb 3915 81bc f29e a8bb
00000080: 6617 c0bb 44bd d83c 9ca0 023d 375d 733c
00000090: 10ad 0b3d 0a14 06bc f4ca 8bba 9517 9abb
000000a0: 7a22 e7ba c03b d73b 8451 813c 771d 02bc
000000b0: 2f3b 7a3c 4230 04bc c47e 363c b18f b93c
000000c0: 21c5 cebc 0836 cabc 67c0 edbb 78b9 a1bb
000000d0: 4a71 a23c 208f 99bc bca4 b1bb f9e4 673b
000000e0: bd51 19bb f071 db3c dd65 b83c 1f07 afbc
000000f0: 3d77 e13c e2a7 61bc a7df ffbb 6eee cb3b
00000100: c064 a4bc ddac adbc c6e7 9ebc 9318 4bbb
00000110: 8f08 f638 0644 b73a e81b 873c 4b66 ab3c
00000120: 7a21 bd3c 15be 543c 5561 e63b 3d68 d4bc
00000130: 2df9 2bbb c7f1 e83b 8375 2bbd a75d a13b
00000140: af8f 9b3c 0fab 193c f2d1 a7bb 64bd d33a
00000150: 494c 1fb6 524b 473c d072 3b3c a79a 09ba
00000160: ea29 18bd f1cb 8e3b a3fd 593c 4e46 dc3b
00000170: e323 b83c 87d5 ebbb 3021 62bc 34c6 153b
00000180: 928f 983c da97 7bbb 096a 8dbc a53a f43b
00000190: f2e1 d7bb 56aa b83c da36 913c 55d8 7bbc
000001a0: 8538 52bc 4603 04bc b1e6 3ebc 8a20 693c
000001b0: f080 aa3c 15d5 983c db3c 273d 0ba4 8dbc
000001c0: 7621 963c b57a 0e3d 1054 0abc 009b d4bb
000001d0: 59f5 e03b c0f7 593c 27bf 27bd 0e04 853c
000001e0: 6c58 0c3c ef77 95bc bc09 8a3b 044e db3c
000001f0: 6b9f ae3b 4ae0 063c c721 933b 3ef4 ac3b
00000200: 6d57 0ebd f969 be3c 8dc9 093a 21dc 9bbb
00000210: 468f 20bd b0e4 6fbb a15c 143a 93c5 763c
00000220: 636f 7eb9 bb81 bcbc 0934 c6bb d2ea f9ba
00000230: 6fc9 913c 2557 cf3c deda cf3c bd7d e5bc
00000240: 415c 8dbc 8584 ba3c 695b b0ba 8efa 103d
00000250: 131d 953c aa51 103d 3238 21bb 2950 323c
00000260: 13f3 65bc 0da4 03bd dacb d9bc 6e0e 3a3d
00000270: 101e c0bb d171 003c 248d 63bc 992b 673b
00000280: 4cf6 39bc 9b67 03bc ce49 13bc de8e ae3b
00000290: c5ab 0dbd b94c b2bc 9856 433c 9da9 793c
000002a0: 5299 a9bb bd1b 29bc 803a 0dbd 7fae 81bc
000002b0: 12e4 5ebd c5cc cb3c 8086 123d c1b1 3a3b
000002c0: b814 d23c 7f53 2fbb 2e07 803c 7b5b 72bc
000002d0: 060b b33b 002b 13bd fc17 81bc 7881 8d3c
000002e0: 45aa b2bc 1add d0bc 6ec4 7dbb cd7f 2d3d
000002f0: 1e49 68bc 6833 9e3c a26b dbb9 085d 2cba
00000300: 750a 8fbc 6a92 9dbc 1f32 babb ffdd 32bc
00000310: 8619 e83b 8665 12bd 6e4e 253d b377 35bc
00000320: eaca 103c d0d8 56bc dd40 633c f0a6 bdbc
00000330: e8e0 833a ea12 113c c68a 103c 094b f2b9
00000340: 9252 0abd 5af7 1e3c 4d08 fb3b 9f6f 013d
00000350: 5ffe 203c eeed ab3c 1c3d 16bd 597f 11bc
00000360: 9f60 be3c 9ad3 83bc 2940 e1bc 2725 53bc
00000370: 8999 6b3c 20e5 ca3b 91d6 08bd 887d bd3c
00000380: 1f8d 2cbc 24df e6ba 5c32 2ebb 730a 06bc
00000390: 3bb6 973a cfd4 1f3d 0750 9cbb 90a7 40bc
000003a0: b268 b53b b4d1 f0bb 2ac5 083c 68b8 053c
000003b0: 0308 d8bc 3af1 2e3c 1a61 6c3c 2dcc 3dbc
000003c0: 0d36 9dbc 2203 d83c 961f 35bd b9ff 8f3b
000003d0: 0bde 143c 3201 90bc 664b 9bbc 1332 1e3b
000003e0: 6196 1f3d 746b 6e3c c121 7fbc 384f b73c
000003f0: 12f3 6abb 9f75 c03b c5d4 413c 1c9a 34bc
0.010787602 0.0057160663 0.010924005 0.022271015 0.028459024 0.02344179 -0.0056275255 -0.0044532716
0.0077444753 -0.0098112635 0.018729677 0.037673716 0.023157865 0.0131289745 -0.0332709 0.005824986
-0.007751909 0.0067238347 -0.014951025 -0.029577713 0.029795097 -0.010614388 -0.0041887704 0.021060117
6.973043e-05 0.010592761 0.001079962 0.0015183046 -0.00047409273 -0.004073971 -0.01575719 -0.005145901
-0.0058621643 0.026457436 0.03189145 0.014853767 0.034100592 -0.008183489 -0.0010665343 -0.004702518
-0.0017634176 0.006568402 0.01578594 -0.007941595 0.0152728995 -0.008068146 0.011138622 0.022651525
-0.025240483 -0.024683967 -0.007255602 -0.0049354397 0.019829411 -0.018745005 -0.005421249 0.003538428
-0.0023394667 0.026787728 0.02250951 -0.0213657 0.027522678 -0.013772937 -0.007808644 0.0062234914
-0.020067573 -0.021200592 -0.019397628 -0.003098999 0.00011731788 0.0013982065 0.016492799 0.0209228
0.023087252 0.012984772 0.007030646 -0.025928611 -0.002624105 0.0071089 -0.041860115 0.0049244943
0.018989412 0.009379162 -0.005121463 0.0016154465 -2.373725e-06 0.012163954 0.011440948 -0.000524918
-0.037149347 0.004357808 0.013305101 0.006722248 0.02247805 -0.0071970853 -0.013801858 0.0022853734
0.018623147 -0.003839007 -0.017262476 0.00745328 -0.006588214 0.02254216 0.01772635 -0.015371402
-0.012830858 -0.008057421 -0.011651681 0.014228949 0.020813435 0.018656293 0.04082952 -0.017290136
0.018326502 0.03478499 -0.008442894 -0.006488204 0.006865185 0.013303697 -0.04095378 0.016237285
0.008566003 -0.018245665 0.004212586 0.0267706 0.0053290627 0.008232186 0.0044901106 0.0052781394
-0.034751344 0.023243891 0.00052561687 -0.004756466 -0.039199136 -0.0036604814 0.0005659555 0.015061754
-0.00024264822 -0.023011079 -0.0060486835 -0.0019067174 0.017796246 0.025310108 0.025372919 -0.028014058
-0.017255904 0.022768268 -0.0013454977 0.035395198 0.01820234 0.03523413 -0.0024600145 0.0108833695
-0.014035004 -0.032138873 -0.026586462 0.045423917 -0.0058629587 0.007839636 -0.013888631 0.003527379
-0.011350226 -0.008020307 -0.008989764 0.0053270897 -0.03458764 -0.0217651 0.011922501 0.015238193
-0.005175748 -0.010321555 -0.034479618 -0.015830277 -0.054416724 0.024877915 0.0357728 0.0028487297
0.025644645 -0.0026752648 0.015628424 -0.014792318 0.0054639606 -0.03592968 -0.015758507 0.01727365
-0.021809706 -0.025496054 -0.0038721818 0.04235821 -0.014177589 0.019311622 -0.00041851128 -0.0006575142
-0.017461041 -0.019234855 -0.0056822444 -0.010917186 0.0070831208 -0.03574135 0.040358 -0.011075902
0.008837441 -0.013113216 0.013870445 -0.023150891 0.0010061534 0.008854607 0.008822149 -0.00046213742
-0.03377015 0.009702528 0.0076609016 0.03160059 0.009826272 0.020987477 -0.036679372 -0.00888046
0.023239432 -0.01609211 -0.027496414 -0.012887276 0.014379867 0.0061918646 -0.03340775 0.023131147
-0.010531693 -0.0017614109 -0.002658031 -0.008181202 0.0011574695 0.03902131 -0.004770282 -0.0117587
0.0055361623 -0.0073492173 0.008347789 0.008161642 -0.026371008 0.01067763 0.014427448 -0.011584324
-0.019190812 0.026368681 -0.044219576 0.004394498 0.009086142 -0.017578695 -0.018956851 0.0024138733
0.038961772 0.014551986 -0.015572012 0.022376642 -0.0035850448 0.0058733965 0.011830513 -0.011023071

features.2.bias f4 [128]
00000000: 9c87 81bc b344 a3b5 5a34 26bd 0658 0580
00000010: 3660 0dbd a4c1 063b 11f9 10bc 32e4 183c
00000020: adf6 d1bc 16ca 9b3b 3bf6 923b a497 95bc
00000030: bfed d1bc 8199 b53c bf58 0580 325a 0500
00000040: cb4b 72bc 19ec b0bc 5a7c 7a3b 0ac0 51bd
00000050: bb76 f3bc 11b8 883c f5e8 8abc e4f1 7fbc
00000060: 2d7c 8e3c 5b49 93bc 91d2 c93c 4ed5 4dbd
00000070: f1ca 8fbc 270e 303c ec35 c3bb 3202 b1ba
00000080: 1765 813c 0182 863c 4525 78b9 24bc b0bc
00000090: 2bc8 07bd 5c47 8ebb e006 053d a016 2bbc
000000a0: ce02 2d3c 0c6a 96bc 1816 a63a 9579 86bc
000000b0: bcaf 323c 6346 d63b 6cbc 07bd c3d2 c13c
000000c0: 2115 58bc 3db7 943c df3e f8bc 428f 83bc
000000d0: cea8 15bd 9c41 94bc 507a fcbc ac32 a8bb
000000e0: 1645 86bc 4503 9bbc 1188 953c 2adf 1a3c
000000f0: 352e 16bb 3847 73bc da2a 1a3c f5c5 1c3b
00000100: 7606 21bc 9add c2bb 0e60 ce3a 503a 2b3c
00000110: 5139 b03a bbf1 07bc cd00 b0bc 17b3 00bb
00000120: 5fb0 05bd 894e 88ba 155a 23bb 5d85 953b
00000130: e755 3abc bb33 9c3c fb6a 633c ff1d 783c
00000140: 6a57 0500 9d53 64bd e4e8 13bb d314 0d3c
00000150: 0ff5 01bd 5194 55bb a4d3 a13b 5854 1fbb
00000160: 4eef 4bbb 4996 b3bc 2788 053c fe0e 14bd
00000170: 4191 673b 7098 7a3c 67b5 43bb 7119 81bc
00000180: dd2e 94ba f06a 60bc 757c b83c b824 89bb
00000190: 1323 5bbb cdd2 a43b edee 813c c3bb e3bc
000001a0: 1f56 ccbc 45fc 5cbc e2da 5abc 9157 0500
000001b0: 3401 3bbd 59aa 9a3c 66d1 9fb9 d39c 9f3c
000001c0: 5b15 3d3c 5d5a d2bb 1b72 ebba d59a 13bc
000001d0: 98b1 a13c 92ea e43a 5312 e03c 0bcd 46b9
000001e0: 0808 d3ba 84b2 b63c dfaa 00bd 14f7 48bc
000001f0: d7ba 113c f227 103c 3c48 97bd 139a 4dbd
-0.015811734 -1.216444e-06 -0.04057727 -4.90754e-40 -0.034515582 0.0020562196 -0.008848445 0.00933175
-0.02563032 0.004754315 0.0044849194 -0.018260784 -0.025626061 0.022167923 -4.91014e-40 4.91533e-40
-0.014788578 -0.021596955 0.0038221092 -0.051208533 -0.029719701 0.016689332 -0.016956786 -0.015621636
0.017393196 -0.017979315 0.024636539 -0.05025225 -0.017552825 0.010745562 -0.0059573557 -0.0013504683
0.015795274 0.016419413 -0.00023665007 -0.021574087 -0.03314988 -0.004342003 0.03247726 -0.010442406
0.010559751 -0.018361114 0.0012671379 -0.016415397 0.010906156 0.0065391525 -0.033138677 0.02366007
-0.013188631 0.018153781 -0.030303417 -0.016059522 -0.036537938 -0.018097691 -0.030820042 -0.0051329937
-0.016390365 -0.018922457 0.018253358 0.0094526205 -0.0022915725 -0.014848523 0.009409631 0.0023921703
-0.009828201 -0.005946827 0.0015745179 0.0104509145 0.0013444816 -0.008297379 -0.021484757 -0.0019637996
-0.032638904 -0.0010399382 -0.002492552 0.0045630173 -0.01137302 0.019067636 0.013880487 0.01514387
4.90536e-40 -0.055743802 -0.0022569234 0.008610922 -0.031727847 -0.0032589624 0.0049385596 -0.0024311747
-0.0031117979 -0.021922247 0.008150137 -0.03614711 0.003533438 0.015295133 -0.0029862763 -0.015759202
-0.001130547 -0.013697371 0.022520283 -0.0041852854 -0.0033437654 0.005030012 0.015860999 -0.027799493
-0.02494341 -0.01348788 -0.01335785 4.9059e-40 -0.045655444 0.018880056 -0.00030482857 0.01948396
0.011540736 -0.0064194635 -0.0017963083 -0.009009083 0.019738004 0.0017464927 0.027352488 -0.00018959136
-0.0016100416 0.02230192 -0.031412955 -0.012265939 0.008894644 0.008798586 -0.073868245 -0.050195765

features.4.weight f4 [128, 128]
00000000: e459 0580 59dc 0580 a957 0580 1159 0500
00000010: 4e5a 0580 4459 0500 4a58 0500 0082 0580
00000020: edfc 0580 2059 0580 3c5a 0580 f861 0580
00000030: 5159 0580 b059 0580 a25a 0500 6f57 0500
00000040: 5759 0580 b85a 0500 8058 0580 a458 0500
00000050: aa5a 0580 6857 0580 3258 0580 ec58 0580
00000060: 6858 0500 9b58 0500 7d5a 0580 ad5a 0580
00000070: 145b 0580 c658 0580 785a 0580 2458 0580
00000080: a85a 0500 bb1f 0400 fc59 0580 cf59 0580
00000090: 8c5a 0580 3959 0500 de57 0580 c05a 0580
000000a0: 5457 0500 bb59 0580 695a 0580 bb5a 0580
000000b0: 0a5b 0580 5a0a 0080 225a 0580 af58 0580
000000c0: 5657 0580 e857 0580 055b 0580 a808 0080
000000d0: ec59 0580 575c 0580 dd58 0580 1758 0580
000000e0: e757 0580 dc59 0580 ac59 0580 f959 0580
000000f0: 0659 0500 e85a 0580 105a 0580 b458 0580
00000100: cc5e 0580 6e5a 0580 da57 0580 d459 0580
00000110: be58 0580 d158 0580 f057 0580 4057 0580
00000120: d65a 0580 a758 0580 705a 0580 8d59 0580
00000130: 2c58 0580 b659 0580 5359 0580 2158 0580
00000140: cc4e 0480 d85a 0580 250a 0080 3659 0580
00000150: ad58 0580 e0c7 0580 935a 0580 9c5a 0580
00000160: 6a59 0500 275a 0580 2258 0580 ba58 0580
00000170: b8c4 0580 b857 0580 1c58 0580 ad57 0580
00000180: 775a 0580 085a 0580 6309 0080 da57 0580
00000190: f759 0500 4057 0500 f85a 0580 da5a 0580
000001a0: 7e57 0500 3459 0580 985a 0580 4d5a 0580
000001b0: 8357 0580 0659 0580 a2ef 0400 d558 0580
000001c0: f308 0080 5c5a 0580 4936 0480 4958 0580
000001d0: ff58 0580 2559 0580 d85a 0580 3358 0580
000001e0: d659 0580 cc5d 0500 7f57 0580 e857 0580
000001f0: 9459 0580 10c8 0580 6459 0580 255d 0500
00000200: 53b9 113d b9dd e83c dd2d 093d e159 0580
00000210: 0398 093d f815 f6bc 2368 403c 19ed 0a3d
00000220: 68e3 e03c bb44 7fbc 4815 c6bc e213 2bbd
00000230: 1261 f03c 79e3 24bd 255a 0500 4159 0500
00000240: e5f5 0b3c d8ee dab9 79c9 e9ba 974a 9b3c
00000250: fc03 033c 3745 37bd 6e1d 763b 455a a83a
00000260: 4077 dfbc eecd 25bd 7ea9 26bd d128 203d
00000270: 0a84 203d 9381 5a3d b6d3 f2bb e00c 263d
00000280: f6fc 60bc 36a7 5f3d 9fa1 a83c 3ed9 8a3d
00000290: 7256 ae3d fb52 44bd 03a5 98bc 47ae 393d
000002a0: bf8a a13c d59d 16bd aea8 8739 38db 27bd
000002b0: 74b9 a63c 13b5 4e3d a2c5 fd3c 189b 1cbd
000002c0: c1a6 cd3c 8b2a 053d 53fa 173d 16f0 663c
000002d0: b7d8 383d e777 083d 86b1 af3c f2c4 b13c
000002e0: bd3d 003d 929b 4c3d 1d35 febc fd51 c9bc
000002f0: 9513 31bc ea2b 133c a431 0d3d 6b34 4b3c
00000300: f8fb 583c 3b54 0ebd 05dd 7c3c 6098 42bc
00000310: 67fb 36bc cc87 1e3c 2796 843c ddf8 aa3c
00000320: 9d2b 093d c4b0 c43c 2aac 773d 5e76 643c
00000330: ef84 203c 2152 0a3c 9628 1bbd d77e b7bc
00000340: 4958 0500 4df2 943d f116 dd3c 310e db3c
00000350: 3b33 d0ba 925e d53c 81b9 083d e35f 7d3b
00000360: 41ee b4bc 7f4f 413d 5cff fa3c 43b8 9a3c
00000370: ad25 0d3c 0176 77bd 858b 683c 9b48 193d
00000380: 8a33 91bc e57f 8eba 737f 14bc 4008 b43c
00000390: ffb1 fd3c 172e 3fbc 19c4 13bd 71b8 e93c
000003a0: eb17 c83c f735 3f3d 8abf c23c 3c58 0500
000003b0: 27da ac3c 1f12 36bc 087c 423d 4245 97bc
000003c0: 0895 963d 67b3 c93c 6752 3b3d e583 5e3d
000003d0: 553b 55bc ed9f aeba 1775 69bd 3df9 033d
000003e0: 7866 243c c7fd 25bc c575 863c 182f debb
000003f0: 492b ea3c 3cec ae3c 37a5 fc3c 5861 cb3c
-4.91424e-40 -5.38223e-40 -4.90624e-40 4.91128e-40 -4.91573e-40 4.912e-40 4.9085e-40 -5.05813e-40
-5.4991e-40 -4.9115e-40 -4.91547e-40 -4.94322e-40 -4.91218e-40 -4.91351e-40 4.9169e-40 4.90543e-40
-4.91227e-40 4.91721e-40 -4.90925e-40 4.90976e-40 -4.91702e-40 -4.90533e-40 -4.90816e-40 -4.91077e-40
4.90892e-40 4.90963e-40 -4.91639e-40 -4.91706e-40 -4.9185e-40 -4.91023e-40 -4.91632e-40 -4.90796e-40
4.91699e-40 3.78725e-40 -4.91458e-40 -4.91395e-40 -4.9166e-40 4.91185e-40 -4.90698e-40 -4.91732e-40
4.90505e-40 -4.91367e-40 -4.9161e-40 -4.91725e-40 -4.91836e-40 -3.713e-42 -4.91511e-40 -4.90991e-40
-4.90508e-40 -4.90712e-40 -4.91829e-40 -3.105e-42 -4.91435e-40 -4.92303e-40 -4.91056e-40 -4.90778e-40
-4.90711e-40 -4.91413e-40 -4.91346e-40 -4.91454e-40 4.91113e-40 -4.91788e-40 -4.91486e-40 -4.90998e-40
-4.93184e-40 -4.91618e-40 -4.90693e-40 -4.91402e-40 -4.91012e-40 -4.91039e-40 -4.90724e-40 -4.90477e-40
-4.91763e-40 -4.9098e-40 -4.9162e-40 -4.91302e-40 -4.90808e-40 -4.9136e-40 -4.91221e-40 -4.90792e-40
-3.95609e-40 -4.91766e-40 -3.639e-42 -4.9118e-40 -4.90988e-40 -5.30879e-40 -4.9167e-40 -4.91682e-40
4.91253e-40 -4.91518e-40 -4.90794e-40 -4.91007e-40 -5.29747e-40 -4.90645e-40 -4.90785e-40 -4.9063e-40
-4.9163e-40 -4.91475e-40 -3.367e-42 -4.90693e-40 4.91451e-40 4.90477e-40 -4.91811e-40 -4.91769e-40
4.90564e-40 -4.91178e-40 -4.91676e-40 -4.91571e-40 -4.90571e-40 -4.91113e-40 4.53306e-40 -4.91044e-40
-3.21e-42 -4.91592e-40 -3.86816e-40 -4.90848e-40 -4.91103e-40 -4.91157e-40 -4.91766e-40 -4.90817e-40
-4.91405e-40 4.92825e-40 -4.90565e-40 -4.90712e-40 -4.91312e-40 -5.30946e-40 -4.91245e-40 4.92591e-40
0.03557713 0.028426038 0.033491004 -4.9142e-40 0.033592235 -0.030039772 0.011743578 0.03391752
0.027452186 -0.015580351 -0.02418007 -0.04176701 0.029343162 -0.040255997 4.91515e-40 4.91196e-40
0.008542513 -0.00041758153 -0.0017836533 0.018956466 0.007996555 -0.044743743 0.0037554163 0.0012844285
-0.027278543 -0.040479593 -0.040688984 0.039101426 0.039188422 0.053346228 -0.007410492 0.040539622
-0.013732186 0.054602824 0.02058488 0.06779717 0.08512582 -0.0479307 -0.018633371 0.04533222
0.01971948 -0.036771614 0.00025874883 -0.040980548 0.020352103 0.050465655 0.030978028 -0.038233846
0.025103929 0.032511275 0.037103962 0.014095327 0.04512855 0.033317473 0.021446954 0.021700356
0.03130888 0.04995305 -0.031031186 -0.024575228 -0.010807891 0.008982638 0.03447117 0.012402634
0.013243668 -0.034748297 0.015433555 -0.011877149 -0.011168337 0.009675931 0.01618488 0.02087062
0.03348886 0.02401007 0.060466923 0.013944237 0.009797319 0.008442433 -0.037880503 -0.02239935
4.90848e-40 0.07272778 0.026988478 0.026740165 -0.0015884408 0.026046071 0.033380035 0.003866189
-0.022086265 0.047194954 0.030639343 0.018886691 0.00861494 -0.06041527 0.01419342 0.037422758
-0.017724771 -0.0010871856 -0.009063589 0.02197659 0.030968664 -0.0116687035 -0.036075685 0.028530331
0.024425467 0.046682324 0.023772974 4.9083e-40 0.021100117 -0.011112719 0.047481567 -0.018465642
0.07352644 0.024621679 0.045732882 0.054325003 -0.013014634 -0.0013322808 -0.05699643 0.032220114
0.010034196 -0.010131306 0.016413579 -0.0067805164 0.028585093 0.02135288 0.0308405 0.02482669

features.4.bias f4 [128]
00000000: b0b1 0680 a4a8 27bc 8f3e 993c 2059 0580
00000010: 4b5a 0580 8f5a 0580 fd58 0580 a857 0580
00000020: e857 0580 d657 0580 163f 3c3b 0058 0580
00000030: 7058 0580 f959 0580 8c06 233d c70b eabb
00000040: 9d59 0580 dbf9 993c fe9d 0580 f2a6 0580
00000050: ac57 0580 3c5a 0580 7859 0580 c458 0580
00000060: 165a 0580 c658 0580 5d59 90bc aedd 5bbc
00000070: d0ad 09bc 808f 823c e474 e53c 045b 0580
00000080: 645a 0580 b7ce bf3c 2059 0580 d05a 0580
00000090: 4458 0580 5057 0580 84e4 fc3c 0558 0580
000000a0: 0059 0580 b058 0580 d96f 18bc e459 0580
000000b0: f358 0580 76d1 0680 585a 0580 44f9 a13c
000000c0: 0059 0580 7157 0580 585a 0580 a557 0580
000000d0: 815a 0580 fa59 0580 6859 0580 c95a 0580
000000e0: 7059 0580 f8d8 0580 805a 0580 3769 253d
000000f0: 285a 0580 a75a 0580 3e5a 0580 0880 253d
00000100: a05a 0580 cf5a 0580 695d 0680 ec58 0580
00000110: 4fda 0680 a359 0580 96bb b93c 185a 0580
00000120: 895a 0580 4cf4 823d 105a 0580 bda3 0680
00000130: b057 0580 f058 0580 7257 0580 905a 0580
00000140: 47bd 453c bf58 0580 9574 0580 6c5a 0580
00000150: 8033 a93c 9157 0580 5057 0580 1059 0580
00000160: a858 0580 f19b 0580 a014 0680 0f5a 0580
00000170: 2f5a 0580 4759 0580 ee8b 5f3d a082 0580
00000180: 8758 0580 5058 0580 76c7 433c c058 0580
00000190: 9b17 70bc ca8d 143d 30b0 25bc b858 0580
000001a0: e2e8 d13c 4f57 0580 3069 0580 c858 0580
000001b0: e84c ecbb c1be 26bc f857 0580 d958 0580
000001c0: 785a 0580 3923 24bc 305a 0580 3858 0580
000001d0: 8059 0580 3059 0580 30d1 993c da57 0580
000001e0: 1ba8 3d3d 407c 0580 f357 0580 585a 0580
000001f0: 185b 0580 e71f 183c 3818 313d d55d 3a3d
-6.14755e-40 -0.010233078 0.018706588 -4.9115e-40 -4.91568e-40 -4.91664e-40 -4.911e-40 -4.90623e-40
-4.90712e-40 -4.90687e-40 0.0028724126 -4.90746e-40 -4.90903e-40 -4.91454e-40 0.039801165 -0.0071425173
-4.91325e-40 0.018795898 -5.15854e-40 -5.19066e-40 -4.90628e-40 -4.91547e-40 -4.91273e-40 -4.9102e-40
-4.91494e-40 -4.91023e-40 -0.017620737 -0.013419552 -0.008403257 0.015937567 0.02800984 -4.91828e-40
-4.91604e-40 0.023413999 -4.9115e-40 -4.91755e-40 -4.90841e-40 -4.905e-40 0.030870683 -4.90753e-40
-4.91105e-40 -4.90993e-40 -0.00930401 -4.91424e-40 -4.91086e-40 -6.26153e-40 -4.91587e-40 0.01977218
-4.91105e-40 -4.90546e-40 -4.91587e-40 -4.90618e-40 -4.91644e-40 -4.91455e-40 -4.9125e-40 -4.91745e-40
-4.91262e-40 -5.37011e-40 -4.91643e-40 0.040383544 -4.9152e-40 -4.91697e-40 -4.9155e-40 0.040405303
-4.91688e-40 -4.91753e-40 -5.84522e-40 -4.91077e-40 -6.29327e-40 -4.91333e-40 0.022672456 -4.91497e-40
-4.91655e-40 0.06394252 -4.91486e-40 -6.09751e-40 -4.90634e-40 -4.91082e-40 -4.90547e-40 -4.91665e-40
0.012069053 -4.91014e-40 -5.00999e-40 -4.91615e-40 0.02065444 -4.9059e-40 -4.905e-40 -4.91127e-40
-4.90981e-40 -5.15119e-40 -5.58412e-40 -4.91484e-40 -4.91529e-40 -4.91204e-40 0.054576807 -5.06037e-40
-4.90935e-40 -4.90858e-40 0.011949411 -4.91015e-40 -0.0146540655 0.036268033 -0.010112807 -4.91004e-40
0.025623742 -4.90498e-40 -4.96912e-40 -4.91026e-40 -0.0072113164 -0.010177315 -4.90735e-40 -4.9105e-40
-4.91632e-40 -0.010018163 -4.9153e-40 -4.90824e-40 -4.91284e-40 -4.91172e-40 0.018776506 -4.90693e-40
0.046302896 -5.0375e-40 -4.90728e-40 -4.91587e-40 -4.91856e-40 0.00928495 0.043235987 0.04549964

features.6.weight f4 [128, 128]
00000000: e45a 0500 5b63 0580 7645 0680 c057 0580
00000010: ff58 0500 425a 0500 3d5a 0500 b059 0500
00000020: 505a 0580 0b58 0500 e735 0680 6804 0580
00000030: 0859 0580 db58 0580 4f6c 0380 a959 0580
00000040: f757 0580 7443 0680 1ef2 0500 a85a 0580
00000050: 0fef 0480 9258 0580 ec5e 0500 b357 0580
00000060: e83b 0000 a359 0500 a95a 0580 a5af 0580
00000070: 2158 0580 0a59 0500 4371 0280 6257 0500
00000080: 2a25 0680 0032 0280 9958 0500 3658 0500
00000090: 635a 0580 4859 0500 7e59 0280 735a 0500
000000a0: 900c 0680 a45a 0580 5a57 0580 ca5a 0500
000000b0: 2c59 0500 6658 0500 8057 0580 2e5b 0580
000000c0: ac58 0580 7458 0580 9550 0500 2059 0580
000000d0: 3a58 0500 5159 0500 8258 0500 8158 0500
000000e0: 5058 0580 305a 0580 6857 0500 a65b 0580
000000f0: a65a 0500 fc59 0500 e35a 0500 aa5b 0580
00000100: 5658 0580 9b57 0500 2658 0500 365a 0580
00000110: a058 0500 8658 0500 7960 0680 0858 0500
00000120: a85a 0500 3d58 0580 8857 0580 dd58 0500
00000130: e859 0580 605a 0580 ff59 0500 335a 0500
00000140: 2858 0580 515a 0580 395a 0500 535a 0500
00000150: 4957 0580 9e59 0580 6859 0580 f858 0500
00000160: 5e59 0580 7e59 0580 3858 0500 4358 0500
00000170: f058 0500 bc57 0500 eb4c 0680 80be 0400
00000180: c258 0500 d057 0580 3645 0680 a0e4 0480
00000190: fb64 0580 9c06 0380 fa59 0580 9058 0580
000001a0: 1dd2 0680 3759 0580 9159 0500 7458 0500
000001b0: e370 0680 6158 0580 dfbf 0580 ed99 0580
000001c0: b257 0580 a45b 0580 f0de 0400 2058 0580
000001d0: aa5a 0580 d02f 0580 4e57 0280 825a 0580
000001e0: 9f5d 0580 28b3 0000 7759 0580 9058 0500
000001f0: 225a 0580 6559 0580 2b5e 0580 935c 0580
00000200: c459 0500 6259 0500 5a5e 0580 f05a 0580
00000210: fb5a 0580 5f58 0500 3059 0580 8858 0500
00000220: 4859 0580 04ec 0300 185b 0500 58b5 0480
00000230: f85a 0580 9e57 0580 2e64 0580 7f5a 0580
00000240: 8b58 0500 d15d 0580 1b64 0580 5a5a 0580
00000250: a5db 0480 a858 0500 b85a 0580 815a 0580
00000260: bcaa 0080 3158 0500 cd59 0580 3d57 0580
00000270: 8c59 0580 3f5a 0580 f265 0580 a759 0580
00000280: ba66 0580 0464 0580 a758 0500 d257 0500
00000290: d657 0580 f059 0500 cd63 0580 6d5a 0580
000002a0: 7f58 0500 d258 0500 9f59 0580 2d58 0500
000002b0: 5959 0580 6a5a 0580 a85a 0500 b557 0580
000002c0: 105a 0580 5f58 0580 1158 0500 565e 0580
000002d0: 2f59 0580 0d58 0500 d55a 0580 ef58 0580
000002e0: f557 0580 c85d 0580 e857 0580 bb6e 0580
000002f0: d95a 0580 d357 0580 7dd8 0480 9a70 0580
00000300: d358 0580 005a 0500 4963 0580 c757 0580
00000310: e158 0500 095a 0500 385e 0580 d058 0500
00000320: d857 0580 e07e 0580 b05a 0580 6393 0100
00000330: 685a 0500 c057 0580 7263 0500 5465 0580
00000340: ff57 0580 0658 0500 bc57 0500 525a 0500
00000350: 0f5a 0580 8d58 0580 4058 0500 6c5a 0500
00000360: 5e21 0580 e459 0580 285a 0500 1159 0500
00000370: 8459 0500 ab58 0500 0282 0580 8059 0500
00000380: 135e 0580 b0bf 0100 5f5e 0580 98d6 0480
00000390: b157 0500 5566 0580 9b5a 0500 f057 0580
000003a0: 465c 0580 3458 0580 7c58 0500 4c59 0580
000003b0: b85a 0580 0658 0580 5458 0500 da64 0580
000003c0: 7bbf 0600 99d6 0600 7814 0500 5865 0580
000003d0: 3e66 0200 5020 0580 5c63 0580 1359 0580
000003e0: ff71 0580 10b3 0000 7781 0580 70e8 0500
000003f0: 3c57 0500 7959 0580 7e6f 0580 eb70 0580
4.91783e-40 -4.9482e-40 -5.75931e-40 -4.90656e-40 4.91103e-40 4.91556e-40 4.91549e-40 4.91351e-40
-4.91576e-40 4.90761e-40 -5.7035e-40 -4.60758e-40 -4.91116e-40 -4.91053e-40 -3.1436e-40 -4.91341e-40
-4.90733e-40 -5.7521e-40 5.46033e-40 -4.91699e-40 -4.531e-40 -4.9095e-40 4.93229e-40 -4.90638e-40
2.149e-41 4.91333e-40 -4.917e-40 -5.22187e-40 -4.90792e-40 4.91119e-40 -2.24302e-40 4.90525e-40
-5.64345e-40 -2.01608e-40 4.9096e-40 4.90822e-40 -4.91602e-40 4.91206e-40 -2.15775e-40 4.91625e-40
-5.5552e-40 -4.91693e-40 -4.90513e-40 4.91746e-40 4.91166e-40 4.90889e-40 -4.90567e-40 -4.91887e-40
-4.90987e-40 -4.90908e-40 4.88085e-40 -4.9115e-40 4.90827e-40 4.91218e-40 4.90928e-40 4.90927e-40
-4.90858e-40 -4.9153e-40 4.90533e-40 -4.92055e-40 4.91696e-40 4.91458e-40 4.91781e-40 -4.9206e-40
-4.90866e-40 4.90604e-40 4.90799e-40 -4.91539e-40 4.9097e-40 4.90934e-40 -5.85621e-40 4.90757e-40
4.91699e-40 -4.90831e-40 -4.90578e-40 4.91056e-40 -4.9143e-40 -4.91598e-40 4.91462e-40 4.91535e-40
-4.90802e-40 -4.91577e-40 4.91543e-40 4.9158e-40 -4.9049e-40 -4.91326e-40 -4.9125e-40 4.91093e-40
-4.91236e-40 -4.91281e-40 4.90824e-40 4.9084e-40 4.91082e-40 4.9065e-40 -5.78606e-40 4.3568e-40
4.91018e-40 -4.90679e-40 -5.75841e-40 -4.49357e-40 -4.95402e-40 -2.77877e-40 -4.91455e-40 -4.90948e-40
-6.26387e-40 -4.91182e-40 4.91308e-40 4.90908e-40 -5.91509e-40 -4.90882e-40 -5.28008e-40 -5.14396e-40
-4.90637e-40 -4.92052e-40 4.47317e-40 -4.90791e-40 -4.91702e-40 -4.7633e-40 -2.1499e-40 -4.91646e-40
-4.92762e-40 6.4269e-41 -4.91271e-40 4.90948e-40 -4.91511e-40 -4.91246e-40 -4.92959e-40 -4.92387e-40
4.9138e-40 4.91242e-40 -4.93024e-40 -4.918e-40 -4.91815e-40 4.90879e-40 -4.91172e-40 4.90937e-40
-4.91206e-40 3.60173e-40 4.91856e-40 -4.32396e-40 -4.91811e-40 -4.90609e-40 -4.95115e-40 -4.91641e-40
4.90941e-40 -4.92832e-40 -4.95089e-40 -4.9159e-40 -4.46136e-40 4.90981e-40 -4.91721e-40 -4.91644e-40
-6.1248e-41 4.90815e-40 -4.91392e-40 -4.90473e-40 -4.91301e-40 -4.91552e-40 -4.95749e-40 -4.91339e-40
-4.96029e-40 -4.95056e-40 4.9098e-40 4.90681e-40 -4.90687e-40 4.91441e-40 -4.94979e-40 -4.91616e-40
4.90924e-40 4.9104e-40 -4.91327e-40 4.90809e-40 -4.9123e-40 -4.91612e-40 4.91699e-40 -4.90641e-40
-4.91486e-40 -4.90879e-40 4.9077e-40 -4.93019e-40 -4.9117e-40 4.90764e-40 -4.91762e-40 -4.91081e-40
-4.9073e-40 -4.9282e-40 -4.90712e-40 -4.989e-40 -4.91767e-40 -4.90683e-40 -4.45003e-40 -4.99571e-40
-4.91042e-40 4.91463e-40 -4.94794e-40 -4.90666e-40 4.91061e-40 4.91476e-40 -4.92977e-40 4.91037e-40
-4.9069e-40 -5.04692e-40 -4.9171e-40 1.44708e-40 4.91609e-40 -4.90656e-40 4.94852e-40 -4.95527e-40
-4.90745e-40 4.90754e-40 4.9065e-40 4.91578e-40 -4.91484e-40 -4.90944e-40 4.90836e-40 4.91615e-40
-4.71147e-40 -4.91424e-40 4.9152e-40 4.91128e-40 4.9129e-40 4.90986e-40 -5.05815e-40 4.91284e-40
-4.92925e-40 1.606e-40 -4.93031e-40 -4.44324e-40 4.90635e-40 -4.95887e-40 4.9168e-40 -4.90724e-40
-4.92279e-40 -4.90819e-40 4.9092e-40 -4.91211e-40 -4.91721e-40 -4.90754e-40 4.90864e-40 -4.95356e-40
6.19703e-40 6.27996e-40 4.6652e-40 -4.95533e-40 2.20349e-40 -4.70769e-40 -4.94821e-40 -4.91131e-40
-5.00072e-40 6.4236e-41 -5.05621e-40 5.4256e-40 4.90471e-40 -4.91274e-40 -4.99173e-40 -4.99685e-40

features.6.bias f4 [128]
00000000: df59 0580 e858 0580 60bc 69bc a858 0580
00000010: 948c de3c 9858 0580 7ada 0580 e359 0580
00000020: 1070 0680 77b8 563d 7e59 0580 3c57 0580
00000030: 7cf5 963d efb7 e53c b859 0580 7858 0580
00000040: c958 0580 d858 0580 5854 513d f85a 0580
00000050: eb58 0580 2358 0580 8857 0580 be74 0580
00000060: a4bb 073c 405a 0580 0ecc 0f3d cd59 0580
00000070: 8212 0680 8057 0580 6c5a 0580 6257 0580
00000080: 8057 0580 b159 0580 105a 0580 cceb ba3c
00000090: b857 0580 005b 0580 e759 0580 4d59 0580
000000a0: e557 0580 7ea4 9cbc 0f58 0580 cd5a 0580
000000b0: 9459 0580 00fc 0580 9159 0580 6857 0580
000000c0: b858 0580 a172 0580 43b4 c23c c058 0580
000000d0: a759 0580 6f57 0580 d05a 0580 a459 0580
000000e0: d059 0580 bcda 6cbc 6859 0580 0163 5e3d
000000f0: 5c59 0580 f058 0580 705a 0580 0759 0580
00000100: f857 0580 d4a9 f93c 3cb0 123d 00d8 0680
00000110: 5ac1 5abc f858 0580 a259 0580 c857 0580
00000120: 685a 0580 00f8 0580 d8d0 e9bc 628d 1c3d
00000130: 4bc8 353d a85a 0580 32f5 0580 c357 0580
00000140: c059 0580 b56e 0580 36c6 523d 5059 0580
00000150: 507e 0680 3368 2e3d 7958 0580 8859 0580
00000160: 51a7 283d 6057 0580 f85a 0580 7a5a 0580
00000170: ca5a 0580 1059 0580 ade2 0580 6e5a 0580
00000180: dce0 4b3d 40f3 fb3c 7557 0580 6bd3 073c
00000190: b459 0580 305a 0580 1d12 0680 c057 0580
000001a0: 1160 81bc c159 0580 575a 0580 c804 573d
000001b0: 8159 0580 225a 0580 d509 0680 005a 0580
000001c0: a257 0580 2058 0580 c015 0680 ae5a 0580
000001d0: f85a 0580 c05a 0580 cf5a 0580 4b1c 493c
000001e0: 5b59 0580 0c59 0580 1459 0580 f15a 0580
000001f0: d758 0580 bc59 0580 a058 0580 7457 c1bc
-4.91417e-40 -4.91071e-40 -0.0142661035 -4.90981e-40 0.027166642 -4.90959e-40 -5.37552e-40 -4.91423e-40
-5.91213e-40 0.052422013 -4.91281e-40 -4.90471e-40 0.07371041 0.028041808 -4.91363e-40 -4.90914e-40
-4.91028e-40 -4.91049e-40 0.051105827 -4.91811e-40 -4.91075e-40 -4.90795e-40 -4.90578e-40 -5.01057e-40
0.008284483 -4.91553e-40 0.03510671 -4.91392e-40 -5.57652e-40 -4.90567e-40 -4.91615e-40 -4.90525e-40
-4.90567e-40 -4.91353e-40 -4.91486e-40 0.022817515 -4.90645e-40 -4.91822e-40 -4.91428e-40 -4.91213e-40
-4.90708e-40 -0.019121405 -4.90767e-40 -4.9175e-40 -4.91312e-40 -5.49578e-40 -4.91308e-40 -4.90533e-40
-4.91004e-40 -5.00299e-40 0.023767596 -4.91015e-40 -4.91339e-40 -4.90543e-40 -4.91755e-40 -4.91334e-40
-4.91396e-40 -0.014456447 -4.9125e-40 0.054293636 -4.91234e-40 -4.91082e-40 -4.9162e-40 -4.91114e-40
-4.90735e-40 0.030476488 0.0358126 -6.28499e-40 -0.013351763 -4.91093e-40 -4.91332e-40 -4.90667e-40
-4.91609e-40 -5.48143e-40 -0.028541967 0.03822077 0.044380467 -4.91699e-40 -5.47137e-40 -4.9066e-40
-4.91374e-40 -4.98892e-40 0.05145856 -4.91217e-40 -5.96325e-40 0.04257984 -4.90915e-40 -4.91295e-40
0.04117519 -4.90522e-40 -4.91811e-40 -4.91634e-40 -4.91746e-40 -4.91127e-40 -5.40493e-40 -4.91618e-40
0.04977499 0.03075564 -4.90551e-40 0.008290152 -4.91357e-40 -4.9153e-40 -5.57511e-40 -4.90656e-40
-0.015792878 -4.91375e-40 -4.91585e-40 0.052494794 -4.91285e-40 -4.91511e-40 -5.5454e-40 -4.91463e-40
-4.90614e-40 -4.90791e-40 -5.58815e-40 -4.91707e-40 -4.91811e-40 -4.91732e-40 -4.91753e-40 0.012274812
-4.91232e-40 -4.91121e-40 -4.91133e-40 -4.91801e-40 -4.91047e-40 -4.91368e-40 -4.9097e-40 -0.023601271

features.8.weight f4 [128, 128]
00000000: 575b 0580 2958 0500 7957 0500 db57 0500
00000010: e363 0580 d15a 0500 555a 0500 3e5a 0580
00000020: b85a 0580 b759 0580 6b58 0580 c058 0500
00000030: a857 0580 b065 0580 de5a 0580 cc1c 0680
00000040: a258 0500 605a 0580 937f 0580 1159 0580
00000050: d059 0500 0b58 0580 4c5a 0580 9764 0580
00000060: 98c6 0680 2a5a 0580 0f71 0580 7f5a 0500
00000070: 7259 0580 ec58 0500 bc58 0500 d558 0500
00000080: b357 0500 5859 0580 ee57 0580 6764 0580
00000090: 7959 0580 0258 0580 905b 0580 d559 0580
000000a0: 5a58 0580 8559 0500 7b59 0580 aa58 0580
000000b0: 145d 0580 8259 0580 bc58 0580 3b5a 0580
000000c0: 7959 0580 1d59 0580 485c 0580 8e58 0580
000000d0: e85a 0580 8e59 0580 a657 0500 6e5a 0580
000000e0: 0958 0580 bb7e 0580 4659 0500 f4a6 0580
000000f0: 2f5a 0580 7c57 0500 6258 0580 a75a 0580
00000100: 4057 0580 5a72 0580 7967 0580 6258 0500
00000110: 1c25 0400 c559 0580 1a64 0580 d859 0580
00000120: 155a 0580 c65a 0580 d758 0580 6e70 0580
00000130: 6581 0580 5c57 0580 8c59 0580 cb58 0500
00000140: a95a 0500 b65a 0500 9dd4 0580 125a 0580
00000150: 7557 0580 e170 0580 6858 0500 5e5a 0580
00000160: c117 0680 c057 0500 7459 0500 a857 0580
00000170: ce59 0580 4558 0500 3257 0580 3457 0580
00000180: fc7e 0580 3370 0580 4a57 0500 6e57 0580
00000190: db5e 0580 aa5a 0580 455a 0580 4d59 0580
000001a0: bb58 0500 055b 0580 925e 0580 0a80 0580
000001b0: 4558 0580 bf5a 0580 4457 0500 1a5a 0500
000001c0: c858 0580 2c5a 0580 115a 0580 a458 0580
000001d0: 6259 0500 2558 0500 3c59 0580 9d65 0580
000001e0: c058 0500 585a 0500 db5a 0580 74f7 0580
000001f0: 4259 0580 eb5a 0500 c458 0580 1859 0580
00000200: 4258 0580 aa59 0580 652b 0380 ac58 0500
00000210: a659 0500 c657 0580 ff57 0580 055b 0580
00000220: 8959 0580 c157 0580 9b59 0500 6b57 0580
00000230: d558 0580 995a 0580 c959 0500 9d5a 0580
00000240: a757 0500 d25a 0500 4258 0580 1f18 0680
00000250: 2358 0580 ed59 0580 e157 0580 7f5a 0580
00000260: ef57 0580 d657 0580 f7d3 0580 4757 0580
00000270: 1c58 0500 e695 0580 2e59 0500 b85a 0580
00000280: cd57 0500 5057 0580 7357 0500 0b5b 0580
00000290: ce5a 0500 b958 0580 d05a 0580 eb59 0500
000002a0: fe59 0500 931d 0180 4b59 0500 7459 0580
000002b0: 63a3 0680 1b5a 0580 135a 0580 f559 0580
000002c0: 7757 0580 c359 0580 cd81 0580 bc5a 0580
000002d0: e659 0500 da5a 0580 e057 0580 0858 0580
000002e0: 3c5a 0580 2863 0580 ec5a 0580 f759 0580
000002f0: 425a 0580 ef5a 0580 9c57 0580 cb57 0500
00000300: c55a 0580 095b 0580 68ae 0680 1a59 0580
00000310: 914a 0680 8e57 0580 8457 0580 8258 0580
00000320: 4d58 0580 7158 0580 0d5b 0500 5286 0580
00000330: e9b3 0580 f257 0500 2c59 0580 755a 0500
00000340: 075b 0500 895a 0500 9959 0580 0859 0580
00000350: ab57 0580 c2de 0580 e558 0500 6e57 0580
00000360: ea5a 0580 f10f 0680 3658 0500 9359 0580
00000370: ce59 0580 415a 0500 7f57 0580 4158 0500
00000380: 19d6 0680 ea57 0580 9e59 0580 2358 0580
00000390: ed26 0680 b158 0580 c258 0500 055a 0580
000003a0: a531 0680 6358 0580 7059 0580 9f57 0580
000003b0: b25a 0580 7859 0580 f657 0500 7c5f 0580
000003c0: 2a5a 0500 a85a 0580 a957 0500 c957 0500
000003d0: ae58 0580 0058 0580 d66c 0680 565a 0580
000003e0: e959 0500 ecc3 0580 515a 0500 6f5a 0580
000003f0: a458 0580 8f57 0580 5b5a 0580 ae5a 0580
-4.91944e-40 4.90803e-40 4.90557e-40 4.90694e-40 -4.9501e-40 4.91756e-40 4.91583e-40 -4.9155e-40
-4.91721e-40 -4.91361e-40 -4.90896e-40 4.91015e-40 -4.90623e-40 -4.95656e-40 -4.91774e-40 -5.61343e-40
4.90973e-40 -4.91598e-40 -5.04942e-40 -4.91128e-40 4.91396e-40 -4.90761e-40 -4.9157e-40 -4.95262e-40
-6.22255e-40 -4.91522e-40 -4.99735e-40 4.91641e-40 -4.91264e-40 4.91077e-40 4.9101e-40 4.91044e-40
4.90638e-40 -4.91228e-40 -4.90721e-40 -4.95195e-40 -4.91274e-40 -4.90749e-40 -4.92024e-40 -4.91403e-40
-4.90872e-40 4.91291e-40 -4.91277e-40 -4.90984e-40 -4.92568e-40 -4.91287e-40 -4.9101e-40 -4.91546e-40
-4.91274e-40 -4.91145e-40 -4.92282e-40 -4.90945e-40 -4.91788e-40 -4.91304e-40 4.9062e-40 -4.91618e-40
-4.90759e-40 -5.0464e-40 4.91203e-40 -5.19069e-40 -4.91529e-40 4.90561e-40 -4.90883e-40 -4.91697e-40
-4.90477e-40 -5.00199e-40 -4.96296e-40 4.90883e-40 3.80654e-40 -4.91381e-40 -4.95087e-40 -4.91407e-40
-4.91493e-40 -4.91741e-40 -4.91047e-40 -4.9951e-40 -5.05595e-40 -4.90516e-40 -4.91301e-40 4.9103e-40
4.917e-40 4.91718e-40 -5.35449e-40 -4.91489e-40 -4.90551e-40 -4.99671e-40 4.90892e-40 -4.91595e-40
-5.59534e-40 4.90656e-40 4.91267e-40 -4.90623e-40 -4.91393e-40 4.90843e-40 -4.90457e-40 -4.9046e-40
-5.04731e-40 -4.99427e-40 4.90491e-40 -4.90541e-40 -4.93205e-40 -4.91702e-40 -4.9156e-40 -4.91213e-40
4.91008e-40 -4.91829e-40 -4.93103e-40 -5.05109e-40 -4.90843e-40 -4.91731e-40 4.90482e-40 4.915e-40
-4.91026e-40 -4.91525e-40 -4.91487e-40 -4.90976e-40 4.91242e-40 4.90798e-40 -4.91189e-40 -4.9563e-40
4.91015e-40 4.91587e-40 -4.9177e-40 -5.47947e-40 -4.91197e-40 4.91793e-40 -4.9102e-40 -4.91138e-40
-4.90838e-40 -4.91343e-40 -2.91074e-40 4.90987e-40 4.91337e-40 -4.90665e-40 -4.90745e-40 -4.91829e-40
-4.91297e-40 -4.90658e-40 4.91322e-40 -4.90537e-40 -4.91044e-40 -4.91678e-40 4.91386e-40 -4.91683e-40
4.90621e-40 4.91758e-40 -4.90838e-40 -5.59666e-40 -4.90795e-40 -4.91437e-40 -4.90702e-40 -4.91641e-40
-4.90722e-40 -4.90687e-40 -5.35216e-40 -4.90487e-40 4.90785e-40 -5.12951e-40 4.91169e-40 -4.91721e-40
4.90674e-40 -4.905e-40 4.90548e-40 -4.91838e-40 4.91752e-40 -4.91005e-40 -4.91755e-40 4.91434e-40
4.9146e-40 -1.02445e-40 4.9121e-40 -4.91267e-40 -6.09625e-40 -4.91501e-40 -4.9149e-40 -4.91448e-40
-4.90554e-40 -4.91378e-40 -5.05741e-40 -4.91727e-40 4.91427e-40 -4.91769e-40 -4.90701e-40 -4.90757e-40
-4.91547e-40 -4.94748e-40 -4.91794e-40 -4.91451e-40 -4.91556e-40 -4.91798e-40 -4.90606e-40 4.90672e-40
-4.9174e-40 -4.91835e-40 -6.13578e-40 -4.91141e-40 -5.77762e-40 -4.90586e-40 -4.90572e-40 -4.90928e-40
-4.90854e-40 -4.90904e-40 4.9184e-40 -5.07363e-40 -5.23717e-40 4.90726e-40 -4.91166e-40 4.91627e-40
4.91832e-40 4.91655e-40 -4.91319e-40 -4.91116e-40 -4.90627e-40 -5.39088e-40 4.91067e-40 -4.90541e-40
-4.91791e-40 -5.56732e-40 4.90822e-40 -4.9131e-40 -4.91393e-40 4.91554e-40 -4.90565e-40 4.90837e-40
-6.27817e-40 -4.90715e-40 -4.91326e-40 -4.90795e-40 -5.64977e-40 -4.90994e-40 4.91018e-40 -4.9147e-40
-5.68822e-40 -4.90885e-40 -4.91262e-40 -4.9061e-40 -4.91713e-40 -4.91273e-40 4.90732e-40 -4.93431e-40
4.91522e-40 -4.91699e-40 4.90624e-40 4.90669e-40 -4.9099e-40 -4.90746e-40 -5.90056e-40 -4.91584e-40
4.91431e-40 -5.29461e-40 4.91577e-40 -4.91619e-40 -4.90976e-40 -4.90588e-40 -4.91591e-40 -4.91707e-40

features.8.bias f4 [128]
00000000: f158 0580 579c 0580 dd43 df3d e85a 0580
00000010: a0e3 0580 3858 0580 a768 0680 9e22 c43c
00000020: 23f3 043d c15a 0580 c858 0580 c642 0680
00000030: 845a 0580 b591 0f3d 8a36 0680 7e3f 263d
00000040: 7058 0580 03de a63d da4c 593d 5b59 0580
00000050: 3958 0580 ea58 0580 065b 0580 a557 0580
00000060: b159 0580 63ed ad3d 9058 0580 8a57 0580
00000070: e45a 0580 fd46 283d 5e44 533d 68fe 203d
00000080: 5a19 99bd 825a 0580 b058 0580 4157 0580
00000090: a45a 0580 ba58 0580 cf02 5c3c b8cb 8c3d
000000a0: 885c 7e3d b630 673d f355 173d 6934 8f3d
000000b0: 2fde 6b3d d258 0580 1558 0580 4e5a 0580
000000c0: d457 0580 2c71 2e3d f20f 0680 c577 283d
000000d0: 4357 0580 278e 513d 62e3 193d d85a 0580
000000e0: e958 0580 e1d9 4d3d bdba 6e3d dc57 0580
000000f0: 1e59 0580 7695 113d 028c a23d 8c7f b63d
00000100: 746c 7c3d 2858 0580 de57 0580 b457 0580
00000110: 705a 0580 dd58 0580 a657 0580 437f 183d
00000120: 30a3 303d d259 0580 fcc3 5a3d cd5a 0580
00000130: d6e8 ae3d 615a 0580 8d58 0580 d05a 0580
00000140: 82aa 603d 34a4 bd3d 17d9 663d 1359 9a3d
00000150: 9f58 0580 fba5 563d ee25 0680 ed5a 0580
00000160: 487f 533d f057 0580 b707 0680 8e58 0580
00000170: 57f1 b33d a302 ab3d c6a1 ad3d 8e92 423d
00000180: c517 463d 3c59 0580 875a 0580 72bd 4b3d
00000190: 9029 0680 4d59 0580 187d 0680 3258 0580
000001a0: a257 0580 cd59 0580 f40e a73d f859 0580
000001b0: ad59 0580 8217 a63c b74f 0680 885a 0580
000001c0: a5e2 913d 1a58 0580 9bea 833d 6dca 0580
000001d0: bd58 0580 603f 5b3d aa59 0580 60b6 943d
000001e0: d159 c63d 2f58 0580 4f57 0580 75bd 963d
000001f0: a924 573d b12e 4e3d a858 0580 5659 0580
-4.91084e-40 -5.15262e-40 0.10901616 -4.91788e-40 -5.40834e-40 -4.90824e-40 -5.88555e-40 0.023942288
0.032458436 -4.91734e-40 -4.91026e-40 -5.74967e-40 -4.91648e-40 0.035051066 -5.70578e-40 0.040587895
-4.90903e-40 0.08147814 0.053051807 -4.91232e-40 -4.90826e-40 -4.91074e-40 -4.9183e-40 -4.90618e-40
-4.91353e-40 0.084925435 -4.90948e-40 -4.9058e-40 -4.91783e-40 0.041083325 0.051578872 0.03930512
-0.074755386 -4.91646e-40 -4.90993e-40 -4.90478e-40 -4.91693e-40 -4.91007e-40 0.013428404 0.06874794
0.062099963 0.05644294 0.036947202 0.06992418 0.057584938 -4.9104e-40 -4.90775e-40 -4.91573e-40
-4.90684e-40 0.042588398 -5.56733e-40 0.041129846 -4.90481e-40 0.051160958 0.037570365 -4.91766e-40
-4.91072e-40 0.050256614 0.058283556 -4.90695e-40 -4.91147e-40 0.035542928 0.079368606 0.089110464
0.061626866 -4.90802e-40 -4.90698e-40 -4.9064e-40 -4.9162e-40 -4.91056e-40 -4.9062e-40 0.03723074
0.043124378 -4.91399e-40 0.05340956 -4.9175e-40 0.08540504 -4.916e-40 -4.90944e-40 -4.91755e-40
0.05485011 0.09259835 0.056359377 0.07536521 -4.90969e-40 0.052404385 -5.6462e-40 -4.91796e-40
0.051635057 -4.90724e-40 -5.5378e-40 -4.90945e-40 0.08786266 0.08350112 0.084781215 0.047503047
0.048362512 -4.91189e-40 -4.91653e-40 0.049741216 -5.65923e-40 -4.91213e-40 -5.95888e-40 -4.90816e-40
-4.90614e-40 -4.91392e-40 0.08157149 -4.91452e-40 -4.91347e-40 0.020274881 -5.79609e-40 -4.91654e-40
0.07123307 -4.90782e-40 0.06441232 -5.31794e-40 -4.91011e-40 0.053527236 -4.91343e-40 0.07261348
0.096851 -4.90812e-40 -4.90498e-40 0.07360355 0.052525196 0.050337497 -4.90981e-40 -4.91225e-40
